{"format": "graph-model", "generatedBy": "2.18.0", "convertedBy": "TensorFlow.js Converter v4.22.0", "signature": {"inputs": {"images": {"name": "images:0", "dtype": "DT_UINT8", "tensorShape": {"dim": [{"size": "-1"}, {"size": "-1"}, {"size": "-1"}, {"size": "3"}]}}}, "outputs": {"Identity_2:0": {"name": "Identity_2:0", "dtype": "DT_FLOAT", "tensorShape": {"dim": [{"size": "-1"}, {"size": "100"}]}}, "Identity_1:0": {"name": "Identity_1:0", "dtype": "DT_FLOAT", "tensorShape": {"dim": [{"size": "-1"}, {"size": "100"}]}}, "output_0": {"name": "Identity:0", "dtype": "DT_FLOAT", "tensorShape": {"dim": [{"size": "-1"}, {"size": "100"}, {"size": "4"}]}}, "output_3": {"name": "Identity_3:0", "dtype": "DT_INT32", "tensorShape": {"dim": [{"size": "-1"}]}}}}, "modelTopology": {"node": [{"name": "images", "op": "Placeholder", "attr": {"shape": {"shape": {"dim": [{"size": "-1"}, {"size": "-1"}, {"size": "-1"}, {"size": "3"}]}}, "dtype": {"type": "DT_UINT8"}}}, {"name": "StatefulPartitionedCall/StatefulPartitionedCall/StatefulPartitionedCall/efficientnet-lite4/stem/conv2d/Conv2D_weights", "op": "Const", "attr": {"value": {"tensor": {"dtype": "DT_FLOAT", "tensorShape": {"dim": [{"size": "3"}, {"size": "3"}, {"size": "3"}, {"size": "32"}]}}}, "dtype": {"type": "DT_FLOAT"}}}, {"name": "StatefulPartitionedCall/StatefulPartitionedCall/StatefulPartitionedCall/efficientnet-lite4/stem/conv2d/Conv2D_bn_offset", "op": "Const", "attr": {"value": {"tensor": {"dtype": "DT_FLOAT", "tensorShape": {"dim": [{"size": "32"}]}}}, "dtype": {"type": "DT_FLOAT"}}}, {"name": "StatefulPartitionedCall/StatefulPartitionedCall/StatefulPartitionedCall/efficientnet-lite4/blocks_0/depthwise_conv2d/depthwise_weights", "op": "Const", "attr": {"value": {"tensor": {"dtype": "DT_FLOAT", "tensorShape": {"dim": [{"size": "3"}, {"size": "3"}, {"size": "32"}, {"size": "1"}]}}}, "dtype": {"type": "DT_FLOAT"}}}, {"name": "StatefulPartitionedCall/StatefulPartitionedCall/StatefulPartitionedCall/efficientnet-lite4/blocks_0/depthwise_conv2d/depthwise_bn_offset", "op": "Const", "attr": {"value": {"tensor": {"dtype": "DT_FLOAT", "tensorShape": {"dim": [{"size": "32"}]}}}, "dtype": {"type": "DT_FLOAT"}}}, {"name": "StatefulPartitionedCall/StatefulPartitionedCall/StatefulPartitionedCall/efficientnet-lite4/blocks_0/conv2d/Conv2D_weights", "op": "Const", "attr": {"value": {"tensor": {"dtype": "DT_FLOAT", "tensorShape": {"dim": [{"size": "1"}, {"size": "1"}, {"size": "32"}, {"size": "24"}]}}}, "dtype": {"type": "DT_FLOAT"}}}, {"name": "StatefulPartitionedCall/StatefulPartitionedCall/StatefulPartitionedCall/box_net/box-3/separable_conv2d_1_weights", "op": "Const", "attr": {"value": {"tensor": {"dtype": "DT_FLOAT", "tensorShape": {"dim": [{"size": "1"}, {"size": "1"}, {"size": "224"}, {"size": "224"}]}}}, "dtype": {"type": "DT_FLOAT"}}}, {"name": "StatefulPartitionedCall/StatefulPartitionedCall/StatefulPartitionedCall/efficientnet-lite4/blocks_0/conv2d/Conv2D_bn_offset", "op": "Const", "attr": {"value": {"tensor": {"dtype": "DT_FLOAT", "tensorShape": {"dim": [{"size": "24"}]}}}, "dtype": {"type": "DT_FLOAT"}}}, {"name": "StatefulPartitionedCall/StatefulPartitionedCall/StatefulPartitionedCall/efficientnet-lite4/blocks_1/conv2d/Conv2D_weights", "op": "Const", "attr": {"value": {"tensor": {"dtype": "DT_FLOAT", "tensorShape": {"dim": [{"size": "1"}, {"size": "1"}, {"size": "24"}, {"size": "144"}]}}}, "dtype": {"type": "DT_FLOAT"}}}, {"name": "StatefulPartitionedCall/StatefulPartitionedCall/StatefulPartitionedCall/efficientnet-lite4/blocks_1/conv2d/Conv2D_bn_offset", "op": "Const", "attr": {"value": {"tensor": {"dtype": "DT_FLOAT", "tensorShape": {"dim": [{"size": "144"}]}}}, "dtype": {"type": "DT_FLOAT"}}}, {"name": "StatefulPartitionedCall/StatefulPartitionedCall/StatefulPartitionedCall/box_net/box-3/separable_conv2d_1_bn_offset", "op": "Const", "attr": {"value": {"tensor": {"dtype": "DT_FLOAT", "tensorShape": {"dim": [{"size": "224"}]}}}, "dtype": {"type": "DT_FLOAT"}}}, {"name": "StatefulPartitionedCall/StatefulPartitionedCall/StatefulPartitionedCall/efficientnet-lite4/blocks_1/depthwise_conv2d/depthwise_weights", "op": "Const", "attr": {"value": {"tensor": {"dtype": "DT_FLOAT", "tensorShape": {"dim": [{"size": "3"}, {"size": "3"}, {"size": "144"}, {"size": "1"}]}}}, "dtype": {"type": "DT_FLOAT"}}}, {"name": "StatefulPartitionedCall/StatefulPartitionedCall/StatefulPartitionedCall/efficientnet-lite4/blocks_1/depthwise_conv2d/depthwise_bn_offset", "op": "Const", "attr": {"value": {"tensor": {"dtype": "DT_FLOAT", "tensorShape": {"dim": [{"size": "144"}]}}}, "dtype": {"type": "DT_FLOAT"}}}, {"name": "StatefulPartitionedCall/StatefulPartitionedCall/StatefulPartitionedCall/efficientnet-lite4/blocks_1/conv2d_1/Conv2D_weights", "op": "Const", "attr": {"value": {"tensor": {"dtype": "DT_FLOAT", "tensorShape": {"dim": [{"size": "1"}, {"size": "1"}, {"size": "144"}, {"size": "32"}]}}}, "dtype": {"type": "DT_FLOAT"}}}, {"name": "StatefulPartitionedCall/StatefulPartitionedCall/StatefulPartitionedCall/efficientnet-lite4/blocks_1/conv2d_1/Conv2D_bn_offset", "op": "Const", "attr": {"value": {"tensor": {"dtype": "DT_FLOAT", "tensorShape": {"dim": [{"size": "32"}]}}}, "dtype": {"type": "DT_FLOAT"}}}, {"name": "StatefulPartitionedCall/StatefulPartitionedCall/StatefulPartitionedCall/efficientnet-lite4/blocks_2/conv2d/Conv2D_weights", "op": "Const", "attr": {"value": {"tensor": {"dtype": "DT_FLOAT", "tensorShape": {"dim": [{"size": "1"}, {"size": "1"}, {"size": "32"}, {"size": "192"}]}}}, "dtype": {"type": "DT_FLOAT"}}}, {"name": "StatefulPartitionedCall/StatefulPartitionedCall/StatefulPartitionedCall/efficientnet-lite4/blocks_2/conv2d/Conv2D_bn_offset", "op": "Const", "attr": {"value": {"tensor": {"dtype": "DT_FLOAT", "tensorShape": {"dim": [{"size": "192"}]}}}, "dtype": {"type": "DT_FLOAT"}}}, {"name": "StatefulPartitionedCall/StatefulPartitionedCall/StatefulPartitionedCall/efficientnet-lite4/blocks_2/depthwise_conv2d/depthwise_weights", "op": "Const", "attr": {"value": {"tensor": {"dtype": "DT_FLOAT", "tensorShape": {"dim": [{"size": "3"}, {"size": "3"}, {"size": "192"}, {"size": "1"}]}}}, "dtype": {"type": "DT_FLOAT"}}}, {"name": "StatefulPartitionedCall/StatefulPartitionedCall/StatefulPartitionedCall/efficientnet-lite4/blocks_2/depthwise_conv2d/depthwise_bn_offset", "op": "Const", "attr": {"value": {"tensor": {"dtype": "DT_FLOAT", "tensorShape": {"dim": [{"size": "192"}]}}}, "dtype": {"type": "DT_FLOAT"}}}, {"name": "StatefulPartitionedCall/StatefulPartitionedCall/StatefulPartitionedCall/efficientnet-lite4/blocks_2/conv2d_1/Conv2D_weights", "op": "Const", "attr": {"value": {"tensor": {"dtype": "DT_FLOAT", "tensorShape": {"dim": [{"size": "1"}, {"size": "1"}, {"size": "192"}, {"size": "32"}]}}}, "dtype": {"type": "DT_FLOAT"}}}, {"name": "StatefulPartitionedCall/StatefulPartitionedCall/StatefulPartitionedCall/efficientnet-lite4/blocks_2/conv2d_1/Conv2D_bn_offset", "op": "Const", "attr": {"value": {"tensor": {"dtype": "DT_FLOAT", "tensorShape": {"dim": [{"size": "32"}]}}}, "dtype": {"type": "DT_FLOAT"}}}, {"name": "StatefulPartitionedCall/StatefulPartitionedCall/StatefulPartitionedCall/efficientnet-lite4/blocks_3/conv2d/Conv2D_weights", "op": "Const", "attr": {"value": {"tensor": {"dtype": "DT_FLOAT", "tensorShape": {"dim": [{"size": "1"}, {"size": "1"}, {"size": "32"}, {"size": "192"}]}}}, "dtype": {"type": "DT_FLOAT"}}}, {"name": "StatefulPartitionedCall/StatefulPartitionedCall/StatefulPartitionedCall/efficientnet-lite4/blocks_3/conv2d/Conv2D_bn_offset", "op": "Const", "attr": {"value": {"tensor": {"dtype": "DT_FLOAT", "tensorShape": {"dim": [{"size": "192"}]}}}, "dtype": {"type": "DT_FLOAT"}}}, {"name": "StatefulPartitionedCall/StatefulPartitionedCall/StatefulPartitionedCall/efficientnet-lite4/blocks_3/depthwise_conv2d/depthwise_weights", "op": "Const", "attr": {"value": {"tensor": {"dtype": "DT_FLOAT", "tensorShape": {"dim": [{"size": "3"}, {"size": "3"}, {"size": "192"}, {"size": "1"}]}}}, "dtype": {"type": "DT_FLOAT"}}}, {"name": "StatefulPartitionedCall/StatefulPartitionedCall/StatefulPartitionedCall/efficientnet-lite4/blocks_3/depthwise_conv2d/depthwise_bn_offset", "op": "Const", "attr": {"value": {"tensor": {"dtype": "DT_FLOAT", "tensorShape": {"dim": [{"size": "192"}]}}}, "dtype": {"type": "DT_FLOAT"}}}, {"name": "StatefulPartitionedCall/StatefulPartitionedCall/StatefulPartitionedCall/efficientnet-lite4/blocks_3/conv2d_1/Conv2D_weights", "op": "Const", "attr": {"value": {"tensor": {"dtype": "DT_FLOAT", "tensorShape": {"dim": [{"size": "1"}, {"size": "1"}, {"size": "192"}, {"size": "32"}]}}}, "dtype": {"type": "DT_FLOAT"}}}, {"name": "StatefulPartitionedCall/StatefulPartitionedCall/StatefulPartitionedCall/class_net/class-3/separable_conv2d_1_weights", "op": "Const", "attr": {"value": {"tensor": {"dtype": "DT_FLOAT", "tensorShape": {"dim": [{"size": "1"}, {"size": "1"}, {"size": "224"}, {"size": "224"}]}}}, "dtype": {"type": "DT_FLOAT"}}}, {"name": "StatefulPartitionedCall/StatefulPartitionedCall/StatefulPartitionedCall/efficientnet-lite4/blocks_3/conv2d_1/Conv2D_bn_offset", "op": "Const", "attr": {"value": {"tensor": {"dtype": "DT_FLOAT", "tensorShape": {"dim": [{"size": "32"}]}}}, "dtype": {"type": "DT_FLOAT"}}}, {"name": "StatefulPartitionedCall/StatefulPartitionedCall/StatefulPartitionedCall/efficientnet-lite4/blocks_4/conv2d/Conv2D_weights", "op": "Const", "attr": {"value": {"tensor": {"dtype": "DT_FLOAT", "tensorShape": {"dim": [{"size": "1"}, {"size": "1"}, {"size": "32"}, {"size": "192"}]}}}, "dtype": {"type": "DT_FLOAT"}}}, {"name": "StatefulPartitionedCall/StatefulPartitionedCall/StatefulPartitionedCall/efficientnet-lite4/blocks_4/conv2d/Conv2D_bn_offset", "op": "Const", "attr": {"value": {"tensor": {"dtype": "DT_FLOAT", "tensorShape": {"dim": [{"size": "192"}]}}}, "dtype": {"type": "DT_FLOAT"}}}, {"name": "StatefulPartitionedCall/StatefulPartitionedCall/StatefulPartitionedCall/class_net/class-3/separable_conv2d_1_bn_offset", "op": "Const", "attr": {"value": {"tensor": {"dtype": "DT_FLOAT", "tensorShape": {"dim": [{"size": "224"}]}}}, "dtype": {"type": "DT_FLOAT"}}}, {"name": "StatefulPartitionedCall/StatefulPartitionedCall/StatefulPartitionedCall/efficientnet-lite4/blocks_4/depthwise_conv2d/depthwise_weights", "op": "Const", "attr": {"value": {"tensor": {"dtype": "DT_FLOAT", "tensorShape": {"dim": [{"size": "3"}, {"size": "3"}, {"size": "192"}, {"size": "1"}]}}}, "dtype": {"type": "DT_FLOAT"}}}, {"name": "StatefulPartitionedCall/StatefulPartitionedCall/StatefulPartitionedCall/efficientnet-lite4/blocks_4/depthwise_conv2d/depthwise_bn_offset", "op": "Const", "attr": {"value": {"tensor": {"dtype": "DT_FLOAT", "tensorShape": {"dim": [{"size": "192"}]}}}, "dtype": {"type": "DT_FLOAT"}}}, {"name": "StatefulPartitionedCall/StatefulPartitionedCall/StatefulPartitionedCall/efficientnet-lite4/blocks_4/conv2d_1/Conv2D_weights", "op": "Const", "attr": {"value": {"tensor": {"dtype": "DT_FLOAT", "tensorShape": {"dim": [{"size": "1"}, {"size": "1"}, {"size": "192"}, {"size": "32"}]}}}, "dtype": {"type": "DT_FLOAT"}}}, {"name": "StatefulPartitionedCall/StatefulPartitionedCall/StatefulPartitionedCall/efficientnet-lite4/blocks_4/conv2d_1/Conv2D_bn_offset", "op": "Const", "attr": {"value": {"tensor": {"dtype": "DT_FLOAT", "tensorShape": {"dim": [{"size": "32"}]}}}, "dtype": {"type": "DT_FLOAT"}}}, {"name": "StatefulPartitionedCall/StatefulPartitionedCall/StatefulPartitionedCall/efficientnet-lite4/blocks_5/conv2d/Conv2D_weights", "op": "Const", "attr": {"value": {"tensor": {"dtype": "DT_FLOAT", "tensorShape": {"dim": [{"size": "1"}, {"size": "1"}, {"size": "32"}, {"size": "192"}]}}}, "dtype": {"type": "DT_FLOAT"}}}, {"name": "StatefulPartitionedCall/StatefulPartitionedCall/StatefulPartitionedCall/efficientnet-lite4/blocks_5/conv2d/Conv2D_bn_offset", "op": "Const", "attr": {"value": {"tensor": {"dtype": "DT_FLOAT", "tensorShape": {"dim": [{"size": "192"}]}}}, "dtype": {"type": "DT_FLOAT"}}}, {"name": "StatefulPartitionedCall/StatefulPartitionedCall/StatefulPartitionedCall/efficientnet-lite4/blocks_5/depthwise_conv2d/depthwise_weights", "op": "Const", "attr": {"value": {"tensor": {"dtype": "DT_FLOAT", "tensorShape": {"dim": [{"size": "5"}, {"size": "5"}, {"size": "192"}, {"size": "1"}]}}}, "dtype": {"type": "DT_FLOAT"}}}, {"name": "StatefulPartitionedCall/StatefulPartitionedCall/StatefulPartitionedCall/efficientnet-lite4/blocks_5/depthwise_conv2d/depthwise_bn_offset", "op": "Const", "attr": {"value": {"tensor": {"dtype": "DT_FLOAT", "tensorShape": {"dim": [{"size": "192"}]}}}, "dtype": {"type": "DT_FLOAT"}}}, {"name": "StatefulPartitionedCall/StatefulPartitionedCall/StatefulPartitionedCall/efficientnet-lite4/blocks_5/conv2d_1/Conv2D_weights", "op": "Const", "attr": {"value": {"tensor": {"dtype": "DT_FLOAT", "tensorShape": {"dim": [{"size": "1"}, {"size": "1"}, {"size": "192"}, {"size": "56"}]}}}, "dtype": {"type": "DT_FLOAT"}}}, {"name": "StatefulPartitionedCall/StatefulPartitionedCall/StatefulPartitionedCall/efficientnet-lite4/blocks_5/conv2d_1/Conv2D_bn_offset", "op": "Const", "attr": {"value": {"tensor": {"dtype": "DT_FLOAT", "tensorShape": {"dim": [{"size": "56"}]}}}, "dtype": {"type": "DT_FLOAT"}}}, {"name": "StatefulPartitionedCall/StatefulPartitionedCall/StatefulPartitionedCall/efficientnet-lite4/blocks_6/conv2d/Conv2D_weights", "op": "Const", "attr": {"value": {"tensor": {"dtype": "DT_FLOAT", "tensorShape": {"dim": [{"size": "1"}, {"size": "1"}, {"size": "56"}, {"size": "336"}]}}}, "dtype": {"type": "DT_FLOAT"}}}, {"name": "StatefulPartitionedCall/StatefulPartitionedCall/StatefulPartitionedCall/efficientnet-lite4/blocks_6/conv2d/Conv2D_bn_offset", "op": "Const", "attr": {"value": {"tensor": {"dtype": "DT_FLOAT", "tensorShape": {"dim": [{"size": "336"}]}}}, "dtype": {"type": "DT_FLOAT"}}}, {"name": "StatefulPartitionedCall/StatefulPartitionedCall/StatefulPartitionedCall/efficientnet-lite4/blocks_6/depthwise_conv2d/depthwise_weights", "op": "Const", "attr": {"value": {"tensor": {"dtype": "DT_FLOAT", "tensorShape": {"dim": [{"size": "5"}, {"size": "5"}, {"size": "336"}, {"size": "1"}]}}}, "dtype": {"type": "DT_FLOAT"}}}, {"name": "StatefulPartitionedCall/StatefulPartitionedCall/StatefulPartitionedCall/efficientnet-lite4/blocks_6/depthwise_conv2d/depthwise_bn_offset", "op": "Const", "attr": {"value": {"tensor": {"dtype": "DT_FLOAT", "tensorShape": {"dim": [{"size": "336"}]}}}, "dtype": {"type": "DT_FLOAT"}}}, {"name": "StatefulPartitionedCall/StatefulPartitionedCall/StatefulPartitionedCall/efficientnet-lite4/blocks_6/conv2d_1/Conv2D_weights", "op": "Const", "attr": {"value": {"tensor": {"dtype": "DT_FLOAT", "tensorShape": {"dim": [{"size": "1"}, {"size": "1"}, {"size": "336"}, {"size": "56"}]}}}, "dtype": {"type": "DT_FLOAT"}}}, {"name": "StatefulPartitionedCall/StatefulPartitionedCall/StatefulPartitionedCall/box_net/box-2/separable_conv2d_2_weights", "op": "Const", "attr": {"value": {"tensor": {"dtype": "DT_FLOAT", "tensorShape": {"dim": [{"size": "1"}, {"size": "1"}, {"size": "224"}, {"size": "224"}]}}}, "dtype": {"type": "DT_FLOAT"}}}, {"name": "StatefulPartitionedCall/StatefulPartitionedCall/StatefulPartitionedCall/efficientnet-lite4/blocks_6/conv2d_1/Conv2D_bn_offset", "op": "Const", "attr": {"value": {"tensor": {"dtype": "DT_FLOAT", "tensorShape": {"dim": [{"size": "56"}]}}}, "dtype": {"type": "DT_FLOAT"}}}, {"name": "StatefulPartitionedCall/StatefulPartitionedCall/StatefulPartitionedCall/efficientnet-lite4/blocks_7/conv2d/Conv2D_weights", "op": "Const", "attr": {"value": {"tensor": {"dtype": "DT_FLOAT", "tensorShape": {"dim": [{"size": "1"}, {"size": "1"}, {"size": "56"}, {"size": "336"}]}}}, "dtype": {"type": "DT_FLOAT"}}}, {"name": "StatefulPartitionedCall/StatefulPartitionedCall/StatefulPartitionedCall/efficientnet-lite4/blocks_7/conv2d/Conv2D_bn_offset", "op": "Const", "attr": {"value": {"tensor": {"dtype": "DT_FLOAT", "tensorShape": {"dim": [{"size": "336"}]}}}, "dtype": {"type": "DT_FLOAT"}}}, {"name": "StatefulPartitionedCall/StatefulPartitionedCall/StatefulPartitionedCall/box_net/box-2/separable_conv2d_2_bn_offset", "op": "Const", "attr": {"value": {"tensor": {"dtype": "DT_FLOAT", "tensorShape": {"dim": [{"size": "224"}]}}}, "dtype": {"type": "DT_FLOAT"}}}, {"name": "StatefulPartitionedCall/StatefulPartitionedCall/StatefulPartitionedCall/efficientnet-lite4/blocks_7/depthwise_conv2d/depthwise_weights", "op": "Const", "attr": {"value": {"tensor": {"dtype": "DT_FLOAT", "tensorShape": {"dim": [{"size": "5"}, {"size": "5"}, {"size": "336"}, {"size": "1"}]}}}, "dtype": {"type": "DT_FLOAT"}}}, {"name": "StatefulPartitionedCall/StatefulPartitionedCall/StatefulPartitionedCall/efficientnet-lite4/blocks_7/depthwise_conv2d/depthwise_bn_offset", "op": "Const", "attr": {"value": {"tensor": {"dtype": "DT_FLOAT", "tensorShape": {"dim": [{"size": "336"}]}}}, "dtype": {"type": "DT_FLOAT"}}}, {"name": "StatefulPartitionedCall/StatefulPartitionedCall/StatefulPartitionedCall/efficientnet-lite4/blocks_7/conv2d_1/Conv2D_weights", "op": "Const", "attr": {"value": {"tensor": {"dtype": "DT_FLOAT", "tensorShape": {"dim": [{"size": "1"}, {"size": "1"}, {"size": "336"}, {"size": "56"}]}}}, "dtype": {"type": "DT_FLOAT"}}}, {"name": "StatefulPartitionedCall/StatefulPartitionedCall/StatefulPartitionedCall/efficientnet-lite4/blocks_7/conv2d_1/Conv2D_bn_offset", "op": "Const", "attr": {"value": {"tensor": {"dtype": "DT_FLOAT", "tensorShape": {"dim": [{"size": "56"}]}}}, "dtype": {"type": "DT_FLOAT"}}}, {"name": "StatefulPartitionedCall/StatefulPartitionedCall/StatefulPartitionedCall/efficientnet-lite4/blocks_8/conv2d/Conv2D_weights", "op": "Const", "attr": {"value": {"tensor": {"dtype": "DT_FLOAT", "tensorShape": {"dim": [{"size": "1"}, {"size": "1"}, {"size": "56"}, {"size": "336"}]}}}, "dtype": {"type": "DT_FLOAT"}}}, {"name": "StatefulPartitionedCall/StatefulPartitionedCall/StatefulPartitionedCall/efficientnet-lite4/blocks_8/conv2d/Conv2D_bn_offset", "op": "Const", "attr": {"value": {"tensor": {"dtype": "DT_FLOAT", "tensorShape": {"dim": [{"size": "336"}]}}}, "dtype": {"type": "DT_FLOAT"}}}, {"name": "StatefulPartitionedCall/StatefulPartitionedCall/StatefulPartitionedCall/efficientnet-lite4/blocks_8/depthwise_conv2d/depthwise_weights", "op": "Const", "attr": {"value": {"tensor": {"dtype": "DT_FLOAT", "tensorShape": {"dim": [{"size": "5"}, {"size": "5"}, {"size": "336"}, {"size": "1"}]}}}, "dtype": {"type": "DT_FLOAT"}}}, {"name": "StatefulPartitionedCall/StatefulPartitionedCall/StatefulPartitionedCall/efficientnet-lite4/blocks_8/depthwise_conv2d/depthwise_bn_offset", "op": "Const", "attr": {"value": {"tensor": {"dtype": "DT_FLOAT", "tensorShape": {"dim": [{"size": "336"}]}}}, "dtype": {"type": "DT_FLOAT"}}}, {"name": "StatefulPartitionedCall/StatefulPartitionedCall/StatefulPartitionedCall/efficientnet-lite4/blocks_8/conv2d_1/Conv2D_weights", "op": "Const", "attr": {"value": {"tensor": {"dtype": "DT_FLOAT", "tensorShape": {"dim": [{"size": "1"}, {"size": "1"}, {"size": "336"}, {"size": "56"}]}}}, "dtype": {"type": "DT_FLOAT"}}}, {"name": "StatefulPartitionedCall/StatefulPartitionedCall/StatefulPartitionedCall/class_net/class-2/separable_conv2d_2_weights", "op": "Const", "attr": {"value": {"tensor": {"dtype": "DT_FLOAT", "tensorShape": {"dim": [{"size": "1"}, {"size": "1"}, {"size": "224"}, {"size": "224"}]}}}, "dtype": {"type": "DT_FLOAT"}}}, {"name": "StatefulPartitionedCall/StatefulPartitionedCall/StatefulPartitionedCall/efficientnet-lite4/blocks_8/conv2d_1/Conv2D_bn_offset", "op": "Const", "attr": {"value": {"tensor": {"dtype": "DT_FLOAT", "tensorShape": {"dim": [{"size": "56"}]}}}, "dtype": {"type": "DT_FLOAT"}}}, {"name": "StatefulPartitionedCall/StatefulPartitionedCall/StatefulPartitionedCall/efficientnet-lite4/blocks_9/conv2d/Conv2D_weights", "op": "Const", "attr": {"value": {"tensor": {"dtype": "DT_FLOAT", "tensorShape": {"dim": [{"size": "1"}, {"size": "1"}, {"size": "56"}, {"size": "336"}]}}}, "dtype": {"type": "DT_FLOAT"}}}, {"name": "StatefulPartitionedCall/StatefulPartitionedCall/StatefulPartitionedCall/efficientnet-lite4/blocks_9/conv2d/Conv2D_bn_offset", "op": "Const", "attr": {"value": {"tensor": {"dtype": "DT_FLOAT", "tensorShape": {"dim": [{"size": "336"}]}}}, "dtype": {"type": "DT_FLOAT"}}}, {"name": "StatefulPartitionedCall/StatefulPartitionedCall/StatefulPartitionedCall/class_net/class-2/separable_conv2d_2_bn_offset", "op": "Const", "attr": {"value": {"tensor": {"dtype": "DT_FLOAT", "tensorShape": {"dim": [{"size": "224"}]}}}, "dtype": {"type": "DT_FLOAT"}}}, {"name": "StatefulPartitionedCall/StatefulPartitionedCall/StatefulPartitionedCall/fpn_cells/cell_0/fnode3/resample_0_0_8/conv2d/Conv2D_weights", "op": "Const", "attr": {"value": {"tensor": {"dtype": "DT_FLOAT", "tensorShape": {"dim": [{"size": "1"}, {"size": "1"}, {"size": "56"}, {"size": "224"}]}}}, "dtype": {"type": "DT_FLOAT"}}}, {"name": "StatefulPartitionedCall/StatefulPartitionedCall/StatefulPartitionedCall/fpn_cells/cell_0/fnode3/resample_0_0_8/conv2d/Conv2D_bn_offset", "op": "Const", "attr": {"value": {"tensor": {"dtype": "DT_FLOAT", "tensorShape": {"dim": [{"size": "224"}]}}}, "dtype": {"type": "DT_FLOAT"}}}, {"name": "StatefulPartitionedCall/StatefulPartitionedCall/StatefulPartitionedCall/efficientnet-lite4/blocks_9/depthwise_conv2d/depthwise_weights", "op": "Const", "attr": {"value": {"tensor": {"dtype": "DT_FLOAT", "tensorShape": {"dim": [{"size": "3"}, {"size": "3"}, {"size": "336"}, {"size": "1"}]}}}, "dtype": {"type": "DT_FLOAT"}}}, {"name": "StatefulPartitionedCall/StatefulPartitionedCall/StatefulPartitionedCall/efficientnet-lite4/blocks_9/depthwise_conv2d/depthwise_bn_offset", "op": "Const", "attr": {"value": {"tensor": {"dtype": "DT_FLOAT", "tensorShape": {"dim": [{"size": "336"}]}}}, "dtype": {"type": "DT_FLOAT"}}}, {"name": "StatefulPartitionedCall/StatefulPartitionedCall/StatefulPartitionedCall/efficientnet-lite4/blocks_9/conv2d_1/Conv2D_weights", "op": "Const", "attr": {"value": {"tensor": {"dtype": "DT_FLOAT", "tensorShape": {"dim": [{"size": "1"}, {"size": "1"}, {"size": "336"}, {"size": "112"}]}}}, "dtype": {"type": "DT_FLOAT"}}}, {"name": "StatefulPartitionedCall/StatefulPartitionedCall/StatefulPartitionedCall/efficientnet-lite4/blocks_9/conv2d_1/Conv2D_bn_offset", "op": "Const", "attr": {"value": {"tensor": {"dtype": "DT_FLOAT", "tensorShape": {"dim": [{"size": "112"}]}}}, "dtype": {"type": "DT_FLOAT"}}}, {"name": "StatefulPartitionedCall/StatefulPartitionedCall/StatefulPartitionedCall/efficientnet-lite4/blocks_10/conv2d/Conv2D_weights", "op": "Const", "attr": {"value": {"tensor": {"dtype": "DT_FLOAT", "tensorShape": {"dim": [{"size": "1"}, {"size": "1"}, {"size": "112"}, {"size": "672"}]}}}, "dtype": {"type": "DT_FLOAT"}}}, {"name": "StatefulPartitionedCall/StatefulPartitionedCall/StatefulPartitionedCall/efficientnet-lite4/blocks_10/conv2d/Conv2D_bn_offset", "op": "Const", "attr": {"value": {"tensor": {"dtype": "DT_FLOAT", "tensorShape": {"dim": [{"size": "672"}]}}}, "dtype": {"type": "DT_FLOAT"}}}, {"name": "StatefulPartitionedCall/StatefulPartitionedCall/StatefulPartitionedCall/fpn_cells/cell_6/fnode7/op_after_combine12/conv/separable_conv2d_weights", "op": "Const", "attr": {"value": {"tensor": {"dtype": "DT_FLOAT", "tensorShape": {"dim": [{"size": "1"}, {"size": "1"}, {"size": "224"}, {"size": "224"}]}}}, "dtype": {"type": "DT_FLOAT"}}}, {"name": "StatefulPartitionedCall/StatefulPartitionedCall/StatefulPartitionedCall/efficientnet-lite4/blocks_10/depthwise_conv2d/depthwise_weights", "op": "Const", "attr": {"value": {"tensor": {"dtype": "DT_FLOAT", "tensorShape": {"dim": [{"size": "3"}, {"size": "3"}, {"size": "672"}, {"size": "1"}]}}}, "dtype": {"type": "DT_FLOAT"}}}, {"name": "StatefulPartitionedCall/StatefulPartitionedCall/StatefulPartitionedCall/efficientnet-lite4/blocks_10/depthwise_conv2d/depthwise_bn_offset", "op": "Const", "attr": {"value": {"tensor": {"dtype": "DT_FLOAT", "tensorShape": {"dim": [{"size": "672"}]}}}, "dtype": {"type": "DT_FLOAT"}}}, {"name": "StatefulPartitionedCall/StatefulPartitionedCall/StatefulPartitionedCall/efficientnet-lite4/blocks_10/conv2d_1/Conv2D_weights", "op": "Const", "attr": {"value": {"tensor": {"dtype": "DT_FLOAT", "tensorShape": {"dim": [{"size": "1"}, {"size": "1"}, {"size": "672"}, {"size": "112"}]}}}, "dtype": {"type": "DT_FLOAT"}}}, {"name": "StatefulPartitionedCall/StatefulPartitionedCall/StatefulPartitionedCall/efficientnet-lite4/blocks_10/conv2d_1/Conv2D_bn_offset", "op": "Const", "attr": {"value": {"tensor": {"dtype": "DT_FLOAT", "tensorShape": {"dim": [{"size": "112"}]}}}, "dtype": {"type": "DT_FLOAT"}}}, {"name": "StatefulPartitionedCall/StatefulPartitionedCall/StatefulPartitionedCall/efficientnet-lite4/blocks_11/conv2d/Conv2D_weights", "op": "Const", "attr": {"value": {"tensor": {"dtype": "DT_FLOAT", "tensorShape": {"dim": [{"size": "1"}, {"size": "1"}, {"size": "112"}, {"size": "672"}]}}}, "dtype": {"type": "DT_FLOAT"}}}, {"name": "StatefulPartitionedCall/StatefulPartitionedCall/StatefulPartitionedCall/fpn_cells/cell_6/fnode7/op_after_combine12/conv/separable_conv2d_bn_offset", "op": "Const", "attr": {"value": {"tensor": {"dtype": "DT_FLOAT", "tensorShape": {"dim": [{"size": "224"}]}}}, "dtype": {"type": "DT_FLOAT"}}}, {"name": "StatefulPartitionedCall/StatefulPartitionedCall/StatefulPartitionedCall/efficientnet-lite4/blocks_11/conv2d/Conv2D_bn_offset", "op": "Const", "attr": {"value": {"tensor": {"dtype": "DT_FLOAT", "tensorShape": {"dim": [{"size": "672"}]}}}, "dtype": {"type": "DT_FLOAT"}}}, {"name": "StatefulPartitionedCall/StatefulPartitionedCall/StatefulPartitionedCall/efficientnet-lite4/blocks_11/depthwise_conv2d/depthwise_weights", "op": "Const", "attr": {"value": {"tensor": {"dtype": "DT_FLOAT", "tensorShape": {"dim": [{"size": "3"}, {"size": "3"}, {"size": "672"}, {"size": "1"}]}}}, "dtype": {"type": "DT_FLOAT"}}}, {"name": "StatefulPartitionedCall/StatefulPartitionedCall/StatefulPartitionedCall/efficientnet-lite4/blocks_11/depthwise_conv2d/depthwise_bn_offset", "op": "Const", "attr": {"value": {"tensor": {"dtype": "DT_FLOAT", "tensorShape": {"dim": [{"size": "672"}]}}}, "dtype": {"type": "DT_FLOAT"}}}, {"name": "StatefulPartitionedCall/StatefulPartitionedCall/StatefulPartitionedCall/efficientnet-lite4/blocks_11/conv2d_1/Conv2D_weights", "op": "Const", "attr": {"value": {"tensor": {"dtype": "DT_FLOAT", "tensorShape": {"dim": [{"size": "1"}, {"size": "1"}, {"size": "672"}, {"size": "112"}]}}}, "dtype": {"type": "DT_FLOAT"}}}, {"name": "StatefulPartitionedCall/StatefulPartitionedCall/StatefulPartitionedCall/efficientnet-lite4/blocks_11/conv2d_1/Conv2D_bn_offset", "op": "Const", "attr": {"value": {"tensor": {"dtype": "DT_FLOAT", "tensorShape": {"dim": [{"size": "112"}]}}}, "dtype": {"type": "DT_FLOAT"}}}, {"name": "StatefulPartitionedCall/StatefulPartitionedCall/StatefulPartitionedCall/efficientnet-lite4/blocks_12/conv2d/Conv2D_weights", "op": "Const", "attr": {"value": {"tensor": {"dtype": "DT_FLOAT", "tensorShape": {"dim": [{"size": "1"}, {"size": "1"}, {"size": "112"}, {"size": "672"}]}}}, "dtype": {"type": "DT_FLOAT"}}}, {"name": "StatefulPartitionedCall/StatefulPartitionedCall/StatefulPartitionedCall/efficientnet-lite4/blocks_12/conv2d/Conv2D_bn_offset", "op": "Const", "attr": {"value": {"tensor": {"dtype": "DT_FLOAT", "tensorShape": {"dim": [{"size": "672"}]}}}, "dtype": {"type": "DT_FLOAT"}}}, {"name": "StatefulPartitionedCall/StatefulPartitionedCall/StatefulPartitionedCall/box_net/box-1/separable_conv2d_3_weights", "op": "Const", "attr": {"value": {"tensor": {"dtype": "DT_FLOAT", "tensorShape": {"dim": [{"size": "1"}, {"size": "1"}, {"size": "224"}, {"size": "224"}]}}}, "dtype": {"type": "DT_FLOAT"}}}, {"name": "StatefulPartitionedCall/StatefulPartitionedCall/StatefulPartitionedCall/efficientnet-lite4/blocks_12/depthwise_conv2d/depthwise_weights", "op": "Const", "attr": {"value": {"tensor": {"dtype": "DT_FLOAT", "tensorShape": {"dim": [{"size": "3"}, {"size": "3"}, {"size": "672"}, {"size": "1"}]}}}, "dtype": {"type": "DT_FLOAT"}}}, {"name": "StatefulPartitionedCall/StatefulPartitionedCall/StatefulPartitionedCall/efficientnet-lite4/blocks_12/depthwise_conv2d/depthwise_bn_offset", "op": "Const", "attr": {"value": {"tensor": {"dtype": "DT_FLOAT", "tensorShape": {"dim": [{"size": "672"}]}}}, "dtype": {"type": "DT_FLOAT"}}}, {"name": "StatefulPartitionedCall/StatefulPartitionedCall/StatefulPartitionedCall/efficientnet-lite4/blocks_12/conv2d_1/Conv2D_weights", "op": "Const", "attr": {"value": {"tensor": {"dtype": "DT_FLOAT", "tensorShape": {"dim": [{"size": "1"}, {"size": "1"}, {"size": "672"}, {"size": "112"}]}}}, "dtype": {"type": "DT_FLOAT"}}}, {"name": "StatefulPartitionedCall/StatefulPartitionedCall/StatefulPartitionedCall/efficientnet-lite4/blocks_12/conv2d_1/Conv2D_bn_offset", "op": "Const", "attr": {"value": {"tensor": {"dtype": "DT_FLOAT", "tensorShape": {"dim": [{"size": "112"}]}}}, "dtype": {"type": "DT_FLOAT"}}}, {"name": "StatefulPartitionedCall/StatefulPartitionedCall/StatefulPartitionedCall/efficientnet-lite4/blocks_13/conv2d/Conv2D_weights", "op": "Const", "attr": {"value": {"tensor": {"dtype": "DT_FLOAT", "tensorShape": {"dim": [{"size": "1"}, {"size": "1"}, {"size": "112"}, {"size": "672"}]}}}, "dtype": {"type": "DT_FLOAT"}}}, {"name": "StatefulPartitionedCall/StatefulPartitionedCall/StatefulPartitionedCall/box_net/box-1/separable_conv2d_3_bn_offset", "op": "Const", "attr": {"value": {"tensor": {"dtype": "DT_FLOAT", "tensorShape": {"dim": [{"size": "224"}]}}}, "dtype": {"type": "DT_FLOAT"}}}, {"name": "StatefulPartitionedCall/StatefulPartitionedCall/StatefulPartitionedCall/efficientnet-lite4/blocks_13/conv2d/Conv2D_bn_offset", "op": "Const", "attr": {"value": {"tensor": {"dtype": "DT_FLOAT", "tensorShape": {"dim": [{"size": "672"}]}}}, "dtype": {"type": "DT_FLOAT"}}}, {"name": "StatefulPartitionedCall/StatefulPartitionedCall/StatefulPartitionedCall/efficientnet-lite4/blocks_13/depthwise_conv2d/depthwise_weights", "op": "Const", "attr": {"value": {"tensor": {"dtype": "DT_FLOAT", "tensorShape": {"dim": [{"size": "3"}, {"size": "3"}, {"size": "672"}, {"size": "1"}]}}}, "dtype": {"type": "DT_FLOAT"}}}, {"name": "StatefulPartitionedCall/StatefulPartitionedCall/StatefulPartitionedCall/efficientnet-lite4/blocks_13/depthwise_conv2d/depthwise_bn_offset", "op": "Const", "attr": {"value": {"tensor": {"dtype": "DT_FLOAT", "tensorShape": {"dim": [{"size": "672"}]}}}, "dtype": {"type": "DT_FLOAT"}}}, {"name": "StatefulPartitionedCall/StatefulPartitionedCall/StatefulPartitionedCall/efficientnet-lite4/blocks_13/conv2d_1/Conv2D_weights", "op": "Const", "attr": {"value": {"tensor": {"dtype": "DT_FLOAT", "tensorShape": {"dim": [{"size": "1"}, {"size": "1"}, {"size": "672"}, {"size": "112"}]}}}, "dtype": {"type": "DT_FLOAT"}}}, {"name": "StatefulPartitionedCall/StatefulPartitionedCall/StatefulPartitionedCall/efficientnet-lite4/blocks_13/conv2d_1/Conv2D_bn_offset", "op": "Const", "attr": {"value": {"tensor": {"dtype": "DT_FLOAT", "tensorShape": {"dim": [{"size": "112"}]}}}, "dtype": {"type": "DT_FLOAT"}}}, {"name": "StatefulPartitionedCall/StatefulPartitionedCall/StatefulPartitionedCall/efficientnet-lite4/blocks_14/conv2d/Conv2D_weights", "op": "Const", "attr": {"value": {"tensor": {"dtype": "DT_FLOAT", "tensorShape": {"dim": [{"size": "1"}, {"size": "1"}, {"size": "112"}, {"size": "672"}]}}}, "dtype": {"type": "DT_FLOAT"}}}, {"name": "StatefulPartitionedCall/StatefulPartitionedCall/StatefulPartitionedCall/efficientnet-lite4/blocks_14/conv2d/Conv2D_bn_offset", "op": "Const", "attr": {"value": {"tensor": {"dtype": "DT_FLOAT", "tensorShape": {"dim": [{"size": "672"}]}}}, "dtype": {"type": "DT_FLOAT"}}}, {"name": "StatefulPartitionedCall/StatefulPartitionedCall/StatefulPartitionedCall/class_net/class-1/separable_conv2d_3_weights", "op": "Const", "attr": {"value": {"tensor": {"dtype": "DT_FLOAT", "tensorShape": {"dim": [{"size": "1"}, {"size": "1"}, {"size": "224"}, {"size": "224"}]}}}, "dtype": {"type": "DT_FLOAT"}}}, {"name": "StatefulPartitionedCall/StatefulPartitionedCall/StatefulPartitionedCall/efficientnet-lite4/blocks_14/depthwise_conv2d/depthwise_weights", "op": "Const", "attr": {"value": {"tensor": {"dtype": "DT_FLOAT", "tensorShape": {"dim": [{"size": "3"}, {"size": "3"}, {"size": "672"}, {"size": "1"}]}}}, "dtype": {"type": "DT_FLOAT"}}}, {"name": "StatefulPartitionedCall/StatefulPartitionedCall/StatefulPartitionedCall/efficientnet-lite4/blocks_14/depthwise_conv2d/depthwise_bn_offset", "op": "Const", "attr": {"value": {"tensor": {"dtype": "DT_FLOAT", "tensorShape": {"dim": [{"size": "672"}]}}}, "dtype": {"type": "DT_FLOAT"}}}, {"name": "StatefulPartitionedCall/StatefulPartitionedCall/StatefulPartitionedCall/efficientnet-lite4/blocks_14/conv2d_1/Conv2D_weights", "op": "Const", "attr": {"value": {"tensor": {"dtype": "DT_FLOAT", "tensorShape": {"dim": [{"size": "1"}, {"size": "1"}, {"size": "672"}, {"size": "112"}]}}}, "dtype": {"type": "DT_FLOAT"}}}, {"name": "StatefulPartitionedCall/StatefulPartitionedCall/StatefulPartitionedCall/efficientnet-lite4/blocks_14/conv2d_1/Conv2D_bn_offset", "op": "Const", "attr": {"value": {"tensor": {"dtype": "DT_FLOAT", "tensorShape": {"dim": [{"size": "112"}]}}}, "dtype": {"type": "DT_FLOAT"}}}, {"name": "StatefulPartitionedCall/StatefulPartitionedCall/StatefulPartitionedCall/efficientnet-lite4/blocks_15/conv2d/Conv2D_weights", "op": "Const", "attr": {"value": {"tensor": {"dtype": "DT_FLOAT", "tensorShape": {"dim": [{"size": "1"}, {"size": "1"}, {"size": "112"}, {"size": "672"}]}}}, "dtype": {"type": "DT_FLOAT"}}}, {"name": "StatefulPartitionedCall/StatefulPartitionedCall/StatefulPartitionedCall/class_net/class-1/separable_conv2d_3_bn_offset", "op": "Const", "attr": {"value": {"tensor": {"dtype": "DT_FLOAT", "tensorShape": {"dim": [{"size": "224"}]}}}, "dtype": {"type": "DT_FLOAT"}}}, {"name": "StatefulPartitionedCall/StatefulPartitionedCall/StatefulPartitionedCall/efficientnet-lite4/blocks_15/conv2d/Conv2D_bn_offset", "op": "Const", "attr": {"value": {"tensor": {"dtype": "DT_FLOAT", "tensorShape": {"dim": [{"size": "672"}]}}}, "dtype": {"type": "DT_FLOAT"}}}, {"name": "StatefulPartitionedCall/StatefulPartitionedCall/StatefulPartitionedCall/efficientnet-lite4/blocks_15/depthwise_conv2d/depthwise_weights", "op": "Const", "attr": {"value": {"tensor": {"dtype": "DT_FLOAT", "tensorShape": {"dim": [{"size": "5"}, {"size": "5"}, {"size": "672"}, {"size": "1"}]}}}, "dtype": {"type": "DT_FLOAT"}}}, {"name": "StatefulPartitionedCall/StatefulPartitionedCall/StatefulPartitionedCall/efficientnet-lite4/blocks_15/depthwise_conv2d/depthwise_bn_offset", "op": "Const", "attr": {"value": {"tensor": {"dtype": "DT_FLOAT", "tensorShape": {"dim": [{"size": "672"}]}}}, "dtype": {"type": "DT_FLOAT"}}}, {"name": "StatefulPartitionedCall/StatefulPartitionedCall/StatefulPartitionedCall/efficientnet-lite4/blocks_15/conv2d_1/Conv2D_weights", "op": "Const", "attr": {"value": {"tensor": {"dtype": "DT_FLOAT", "tensorShape": {"dim": [{"size": "1"}, {"size": "1"}, {"size": "672"}, {"size": "160"}]}}}, "dtype": {"type": "DT_FLOAT"}}}, {"name": "StatefulPartitionedCall/StatefulPartitionedCall/StatefulPartitionedCall/efficientnet-lite4/blocks_15/conv2d_1/Conv2D_bn_offset", "op": "Const", "attr": {"value": {"tensor": {"dtype": "DT_FLOAT", "tensorShape": {"dim": [{"size": "160"}]}}}, "dtype": {"type": "DT_FLOAT"}}}, {"name": "StatefulPartitionedCall/StatefulPartitionedCall/StatefulPartitionedCall/efficientnet-lite4/blocks_16/conv2d/Conv2D_weights", "op": "Const", "attr": {"value": {"tensor": {"dtype": "DT_FLOAT", "tensorShape": {"dim": [{"size": "1"}, {"size": "1"}, {"size": "160"}, {"size": "960"}]}}}, "dtype": {"type": "DT_FLOAT"}}}, {"name": "StatefulPartitionedCall/StatefulPartitionedCall/StatefulPartitionedCall/efficientnet-lite4/blocks_16/conv2d/Conv2D_bn_offset", "op": "Const", "attr": {"value": {"tensor": {"dtype": "DT_FLOAT", "tensorShape": {"dim": [{"size": "960"}]}}}, "dtype": {"type": "DT_FLOAT"}}}, {"name": "StatefulPartitionedCall/StatefulPartitionedCall/StatefulPartitionedCall/box_net/box-0/separable_conv2d_4_weights", "op": "Const", "attr": {"value": {"tensor": {"dtype": "DT_FLOAT", "tensorShape": {"dim": [{"size": "1"}, {"size": "1"}, {"size": "224"}, {"size": "224"}]}}}, "dtype": {"type": "DT_FLOAT"}}}, {"name": "StatefulPartitionedCall/StatefulPartitionedCall/StatefulPartitionedCall/efficientnet-lite4/blocks_16/depthwise_conv2d/depthwise_weights", "op": "Const", "attr": {"value": {"tensor": {"dtype": "DT_FLOAT", "tensorShape": {"dim": [{"size": "5"}, {"size": "5"}, {"size": "960"}, {"size": "1"}]}}}, "dtype": {"type": "DT_FLOAT"}}}, {"name": "StatefulPartitionedCall/StatefulPartitionedCall/StatefulPartitionedCall/efficientnet-lite4/blocks_16/depthwise_conv2d/depthwise_bn_offset", "op": "Const", "attr": {"value": {"tensor": {"dtype": "DT_FLOAT", "tensorShape": {"dim": [{"size": "960"}]}}}, "dtype": {"type": "DT_FLOAT"}}}, {"name": "StatefulPartitionedCall/StatefulPartitionedCall/StatefulPartitionedCall/efficientnet-lite4/blocks_16/conv2d_1/Conv2D_weights", "op": "Const", "attr": {"value": {"tensor": {"dtype": "DT_FLOAT", "tensorShape": {"dim": [{"size": "1"}, {"size": "1"}, {"size": "960"}, {"size": "160"}]}}}, "dtype": {"type": "DT_FLOAT"}}}, {"name": "StatefulPartitionedCall/StatefulPartitionedCall/StatefulPartitionedCall/efficientnet-lite4/blocks_16/conv2d_1/Conv2D_bn_offset", "op": "Const", "attr": {"value": {"tensor": {"dtype": "DT_FLOAT", "tensorShape": {"dim": [{"size": "160"}]}}}, "dtype": {"type": "DT_FLOAT"}}}, {"name": "StatefulPartitionedCall/StatefulPartitionedCall/StatefulPartitionedCall/efficientnet-lite4/blocks_17/conv2d/Conv2D_weights", "op": "Const", "attr": {"value": {"tensor": {"dtype": "DT_FLOAT", "tensorShape": {"dim": [{"size": "1"}, {"size": "1"}, {"size": "160"}, {"size": "960"}]}}}, "dtype": {"type": "DT_FLOAT"}}}, {"name": "StatefulPartitionedCall/StatefulPartitionedCall/StatefulPartitionedCall/box_net/box-0/separable_conv2d_4_bn_offset", "op": "Const", "attr": {"value": {"tensor": {"dtype": "DT_FLOAT", "tensorShape": {"dim": [{"size": "224"}]}}}, "dtype": {"type": "DT_FLOAT"}}}, {"name": "StatefulPartitionedCall/StatefulPartitionedCall/StatefulPartitionedCall/efficientnet-lite4/blocks_17/conv2d/Conv2D_bn_offset", "op": "Const", "attr": {"value": {"tensor": {"dtype": "DT_FLOAT", "tensorShape": {"dim": [{"size": "960"}]}}}, "dtype": {"type": "DT_FLOAT"}}}, {"name": "StatefulPartitionedCall/StatefulPartitionedCall/StatefulPartitionedCall/efficientnet-lite4/blocks_17/depthwise_conv2d/depthwise_weights", "op": "Const", "attr": {"value": {"tensor": {"dtype": "DT_FLOAT", "tensorShape": {"dim": [{"size": "5"}, {"size": "5"}, {"size": "960"}, {"size": "1"}]}}}, "dtype": {"type": "DT_FLOAT"}}}, {"name": "StatefulPartitionedCall/StatefulPartitionedCall/StatefulPartitionedCall/efficientnet-lite4/blocks_17/depthwise_conv2d/depthwise_bn_offset", "op": "Const", "attr": {"value": {"tensor": {"dtype": "DT_FLOAT", "tensorShape": {"dim": [{"size": "960"}]}}}, "dtype": {"type": "DT_FLOAT"}}}, {"name": "StatefulPartitionedCall/StatefulPartitionedCall/StatefulPartitionedCall/efficientnet-lite4/blocks_17/conv2d_1/Conv2D_weights", "op": "Const", "attr": {"value": {"tensor": {"dtype": "DT_FLOAT", "tensorShape": {"dim": [{"size": "1"}, {"size": "1"}, {"size": "960"}, {"size": "160"}]}}}, "dtype": {"type": "DT_FLOAT"}}}, {"name": "StatefulPartitionedCall/StatefulPartitionedCall/StatefulPartitionedCall/efficientnet-lite4/blocks_17/conv2d_1/Conv2D_bn_offset", "op": "Const", "attr": {"value": {"tensor": {"dtype": "DT_FLOAT", "tensorShape": {"dim": [{"size": "160"}]}}}, "dtype": {"type": "DT_FLOAT"}}}, {"name": "StatefulPartitionedCall/StatefulPartitionedCall/StatefulPartitionedCall/efficientnet-lite4/blocks_18/conv2d/Conv2D_weights", "op": "Const", "attr": {"value": {"tensor": {"dtype": "DT_FLOAT", "tensorShape": {"dim": [{"size": "1"}, {"size": "1"}, {"size": "160"}, {"size": "960"}]}}}, "dtype": {"type": "DT_FLOAT"}}}, {"name": "StatefulPartitionedCall/StatefulPartitionedCall/StatefulPartitionedCall/efficientnet-lite4/blocks_18/conv2d/Conv2D_bn_offset", "op": "Const", "attr": {"value": {"tensor": {"dtype": "DT_FLOAT", "tensorShape": {"dim": [{"size": "960"}]}}}, "dtype": {"type": "DT_FLOAT"}}}, {"name": "StatefulPartitionedCall/StatefulPartitionedCall/StatefulPartitionedCall/class_net/class-0/separable_conv2d_4_weights", "op": "Const", "attr": {"value": {"tensor": {"dtype": "DT_FLOAT", "tensorShape": {"dim": [{"size": "1"}, {"size": "1"}, {"size": "224"}, {"size": "224"}]}}}, "dtype": {"type": "DT_FLOAT"}}}, {"name": "StatefulPartitionedCall/StatefulPartitionedCall/StatefulPartitionedCall/efficientnet-lite4/blocks_18/depthwise_conv2d/depthwise_weights", "op": "Const", "attr": {"value": {"tensor": {"dtype": "DT_FLOAT", "tensorShape": {"dim": [{"size": "5"}, {"size": "5"}, {"size": "960"}, {"size": "1"}]}}}, "dtype": {"type": "DT_FLOAT"}}}, {"name": "StatefulPartitionedCall/StatefulPartitionedCall/StatefulPartitionedCall/efficientnet-lite4/blocks_18/depthwise_conv2d/depthwise_bn_offset", "op": "Const", "attr": {"value": {"tensor": {"dtype": "DT_FLOAT", "tensorShape": {"dim": [{"size": "960"}]}}}, "dtype": {"type": "DT_FLOAT"}}}, {"name": "StatefulPartitionedCall/StatefulPartitionedCall/StatefulPartitionedCall/efficientnet-lite4/blocks_18/conv2d_1/Conv2D_weights", "op": "Const", "attr": {"value": {"tensor": {"dtype": "DT_FLOAT", "tensorShape": {"dim": [{"size": "1"}, {"size": "1"}, {"size": "960"}, {"size": "160"}]}}}, "dtype": {"type": "DT_FLOAT"}}}, {"name": "StatefulPartitionedCall/StatefulPartitionedCall/StatefulPartitionedCall/efficientnet-lite4/blocks_18/conv2d_1/Conv2D_bn_offset", "op": "Const", "attr": {"value": {"tensor": {"dtype": "DT_FLOAT", "tensorShape": {"dim": [{"size": "160"}]}}}, "dtype": {"type": "DT_FLOAT"}}}, {"name": "StatefulPartitionedCall/StatefulPartitionedCall/StatefulPartitionedCall/efficientnet-lite4/blocks_19/conv2d/Conv2D_weights", "op": "Const", "attr": {"value": {"tensor": {"dtype": "DT_FLOAT", "tensorShape": {"dim": [{"size": "1"}, {"size": "1"}, {"size": "160"}, {"size": "960"}]}}}, "dtype": {"type": "DT_FLOAT"}}}, {"name": "StatefulPartitionedCall/StatefulPartitionedCall/StatefulPartitionedCall/class_net/class-0/separable_conv2d_4_bn_offset", "op": "Const", "attr": {"value": {"tensor": {"dtype": "DT_FLOAT", "tensorShape": {"dim": [{"size": "224"}]}}}, "dtype": {"type": "DT_FLOAT"}}}, {"name": "StatefulPartitionedCall/StatefulPartitionedCall/StatefulPartitionedCall/efficientnet-lite4/blocks_19/conv2d/Conv2D_bn_offset", "op": "Const", "attr": {"value": {"tensor": {"dtype": "DT_FLOAT", "tensorShape": {"dim": [{"size": "960"}]}}}, "dtype": {"type": "DT_FLOAT"}}}, {"name": "StatefulPartitionedCall/StatefulPartitionedCall/StatefulPartitionedCall/efficientnet-lite4/blocks_19/depthwise_conv2d/depthwise_weights", "op": "Const", "attr": {"value": {"tensor": {"dtype": "DT_FLOAT", "tensorShape": {"dim": [{"size": "5"}, {"size": "5"}, {"size": "960"}, {"size": "1"}]}}}, "dtype": {"type": "DT_FLOAT"}}}, {"name": "StatefulPartitionedCall/StatefulPartitionedCall/StatefulPartitionedCall/efficientnet-lite4/blocks_19/depthwise_conv2d/depthwise_bn_offset", "op": "Const", "attr": {"value": {"tensor": {"dtype": "DT_FLOAT", "tensorShape": {"dim": [{"size": "960"}]}}}, "dtype": {"type": "DT_FLOAT"}}}, {"name": "StatefulPartitionedCall/StatefulPartitionedCall/StatefulPartitionedCall/efficientnet-lite4/blocks_19/conv2d_1/Conv2D_weights", "op": "Const", "attr": {"value": {"tensor": {"dtype": "DT_FLOAT", "tensorShape": {"dim": [{"size": "1"}, {"size": "1"}, {"size": "960"}, {"size": "160"}]}}}, "dtype": {"type": "DT_FLOAT"}}}, {"name": "StatefulPartitionedCall/StatefulPartitionedCall/StatefulPartitionedCall/efficientnet-lite4/blocks_19/conv2d_1/Conv2D_bn_offset", "op": "Const", "attr": {"value": {"tensor": {"dtype": "DT_FLOAT", "tensorShape": {"dim": [{"size": "160"}]}}}, "dtype": {"type": "DT_FLOAT"}}}, {"name": "StatefulPartitionedCall/StatefulPartitionedCall/StatefulPartitionedCall/efficientnet-lite4/blocks_20/conv2d/Conv2D_weights", "op": "Const", "attr": {"value": {"tensor": {"dtype": "DT_FLOAT", "tensorShape": {"dim": [{"size": "1"}, {"size": "1"}, {"size": "160"}, {"size": "960"}]}}}, "dtype": {"type": "DT_FLOAT"}}}, {"name": "StatefulPartitionedCall/StatefulPartitionedCall/StatefulPartitionedCall/efficientnet-lite4/blocks_20/conv2d/Conv2D_bn_offset", "op": "Const", "attr": {"value": {"tensor": {"dtype": "DT_FLOAT", "tensorShape": {"dim": [{"size": "960"}]}}}, "dtype": {"type": "DT_FLOAT"}}}, {"name": "StatefulPartitionedCall/StatefulPartitionedCall/StatefulPartitionedCall/box_net/box-3/separable_conv2d_2_weights", "op": "Const", "attr": {"value": {"tensor": {"dtype": "DT_FLOAT", "tensorShape": {"dim": [{"size": "1"}, {"size": "1"}, {"size": "224"}, {"size": "224"}]}}}, "dtype": {"type": "DT_FLOAT"}}}, {"name": "StatefulPartitionedCall/StatefulPartitionedCall/StatefulPartitionedCall/efficientnet-lite4/blocks_20/depthwise_conv2d/depthwise_weights", "op": "Const", "attr": {"value": {"tensor": {"dtype": "DT_FLOAT", "tensorShape": {"dim": [{"size": "5"}, {"size": "5"}, {"size": "960"}, {"size": "1"}]}}}, "dtype": {"type": "DT_FLOAT"}}}, {"name": "StatefulPartitionedCall/StatefulPartitionedCall/StatefulPartitionedCall/efficientnet-lite4/blocks_20/depthwise_conv2d/depthwise_bn_offset", "op": "Const", "attr": {"value": {"tensor": {"dtype": "DT_FLOAT", "tensorShape": {"dim": [{"size": "960"}]}}}, "dtype": {"type": "DT_FLOAT"}}}, {"name": "StatefulPartitionedCall/StatefulPartitionedCall/StatefulPartitionedCall/efficientnet-lite4/blocks_20/conv2d_1/Conv2D_weights", "op": "Const", "attr": {"value": {"tensor": {"dtype": "DT_FLOAT", "tensorShape": {"dim": [{"size": "1"}, {"size": "1"}, {"size": "960"}, {"size": "160"}]}}}, "dtype": {"type": "DT_FLOAT"}}}, {"name": "StatefulPartitionedCall/StatefulPartitionedCall/StatefulPartitionedCall/efficientnet-lite4/blocks_20/conv2d_1/Conv2D_bn_offset", "op": "Const", "attr": {"value": {"tensor": {"dtype": "DT_FLOAT", "tensorShape": {"dim": [{"size": "160"}]}}}, "dtype": {"type": "DT_FLOAT"}}}, {"name": "StatefulPartitionedCall/StatefulPartitionedCall/StatefulPartitionedCall/efficientnet-lite4/blocks_21/conv2d/Conv2D_weights", "op": "Const", "attr": {"value": {"tensor": {"dtype": "DT_FLOAT", "tensorShape": {"dim": [{"size": "1"}, {"size": "1"}, {"size": "160"}, {"size": "960"}]}}}, "dtype": {"type": "DT_FLOAT"}}}, {"name": "StatefulPartitionedCall/StatefulPartitionedCall/StatefulPartitionedCall/box_net/box-3/separable_conv2d_2_bn_offset", "op": "Const", "attr": {"value": {"tensor": {"dtype": "DT_FLOAT", "tensorShape": {"dim": [{"size": "224"}]}}}, "dtype": {"type": "DT_FLOAT"}}}, {"name": "StatefulPartitionedCall/StatefulPartitionedCall/StatefulPartitionedCall/efficientnet-lite4/blocks_21/conv2d/Conv2D_bn_offset", "op": "Const", "attr": {"value": {"tensor": {"dtype": "DT_FLOAT", "tensorShape": {"dim": [{"size": "960"}]}}}, "dtype": {"type": "DT_FLOAT"}}}, {"name": "StatefulPartitionedCall/StatefulPartitionedCall/StatefulPartitionedCall/fpn_cells/cell_0/fnode4/resample_0_1_9/conv2d/Conv2D_weights", "op": "Const", "attr": {"value": {"tensor": {"dtype": "DT_FLOAT", "tensorShape": {"dim": [{"size": "1"}, {"size": "1"}, {"size": "160"}, {"size": "224"}]}}}, "dtype": {"type": "DT_FLOAT"}}}, {"name": "StatefulPartitionedCall/StatefulPartitionedCall/StatefulPartitionedCall/fpn_cells/cell_0/fnode4/resample_0_1_9/conv2d/Conv2D_bn_offset", "op": "Const", "attr": {"value": {"tensor": {"dtype": "DT_FLOAT", "tensorShape": {"dim": [{"size": "224"}]}}}, "dtype": {"type": "DT_FLOAT"}}}, {"name": "StatefulPartitionedCall/StatefulPartitionedCall/StatefulPartitionedCall/fpn_cells/cell_0/fnode2/resample_0_1_7/conv2d/Conv2D_weights", "op": "Const", "attr": {"value": {"tensor": {"dtype": "DT_FLOAT", "tensorShape": {"dim": [{"size": "1"}, {"size": "1"}, {"size": "160"}, {"size": "224"}]}}}, "dtype": {"type": "DT_FLOAT"}}}, {"name": "StatefulPartitionedCall/StatefulPartitionedCall/StatefulPartitionedCall/fpn_cells/cell_0/fnode2/resample_0_1_7/conv2d/Conv2D_bn_offset", "op": "Const", "attr": {"value": {"tensor": {"dtype": "DT_FLOAT", "tensorShape": {"dim": [{"size": "224"}]}}}, "dtype": {"type": "DT_FLOAT"}}}, {"name": "StatefulPartitionedCall/StatefulPartitionedCall/StatefulPartitionedCall/efficientnet-lite4/blocks_21/depthwise_conv2d/depthwise_weights", "op": "Const", "attr": {"value": {"tensor": {"dtype": "DT_FLOAT", "tensorShape": {"dim": [{"size": "5"}, {"size": "5"}, {"size": "960"}, {"size": "1"}]}}}, "dtype": {"type": "DT_FLOAT"}}}, {"name": "StatefulPartitionedCall/StatefulPartitionedCall/StatefulPartitionedCall/efficientnet-lite4/blocks_21/depthwise_conv2d/depthwise_bn_offset", "op": "Const", "attr": {"value": {"tensor": {"dtype": "DT_FLOAT", "tensorShape": {"dim": [{"size": "960"}]}}}, "dtype": {"type": "DT_FLOAT"}}}, {"name": "StatefulPartitionedCall/StatefulPartitionedCall/StatefulPartitionedCall/efficientnet-lite4/blocks_21/conv2d_1/Conv2D_weights", "op": "Const", "attr": {"value": {"tensor": {"dtype": "DT_FLOAT", "tensorShape": {"dim": [{"size": "1"}, {"size": "1"}, {"size": "960"}, {"size": "272"}]}}}, "dtype": {"type": "DT_FLOAT"}}}, {"name": "StatefulPartitionedCall/StatefulPartitionedCall/StatefulPartitionedCall/efficientnet-lite4/blocks_21/conv2d_1/Conv2D_bn_offset", "op": "Const", "attr": {"value": {"tensor": {"dtype": "DT_FLOAT", "tensorShape": {"dim": [{"size": "272"}]}}}, "dtype": {"type": "DT_FLOAT"}}}, {"name": "StatefulPartitionedCall/StatefulPartitionedCall/StatefulPartitionedCall/efficientnet-lite4/blocks_22/conv2d/Conv2D_weights", "op": "Const", "attr": {"value": {"tensor": {"dtype": "DT_FLOAT", "tensorShape": {"dim": [{"size": "1"}, {"size": "1"}, {"size": "272"}, {"size": "1632"}]}}}, "dtype": {"type": "DT_FLOAT"}}}, {"name": "StatefulPartitionedCall/StatefulPartitionedCall/StatefulPartitionedCall/efficientnet-lite4/blocks_22/conv2d/Conv2D_bn_offset", "op": "Const", "attr": {"value": {"tensor": {"dtype": "DT_FLOAT", "tensorShape": {"dim": [{"size": "1632"}]}}}, "dtype": {"type": "DT_FLOAT"}}}, {"name": "StatefulPartitionedCall/StatefulPartitionedCall/StatefulPartitionedCall/efficientnet-lite4/blocks_22/depthwise_conv2d/depthwise_weights", "op": "Const", "attr": {"value": {"tensor": {"dtype": "DT_FLOAT", "tensorShape": {"dim": [{"size": "5"}, {"size": "5"}, {"size": "1632"}, {"size": "1"}]}}}, "dtype": {"type": "DT_FLOAT"}}}, {"name": "StatefulPartitionedCall/StatefulPartitionedCall/StatefulPartitionedCall/efficientnet-lite4/blocks_22/depthwise_conv2d/depthwise_bn_offset", "op": "Const", "attr": {"value": {"tensor": {"dtype": "DT_FLOAT", "tensorShape": {"dim": [{"size": "1632"}]}}}, "dtype": {"type": "DT_FLOAT"}}}, {"name": "StatefulPartitionedCall/StatefulPartitionedCall/StatefulPartitionedCall/efficientnet-lite4/blocks_22/conv2d_1/Conv2D_weights", "op": "Const", "attr": {"value": {"tensor": {"dtype": "DT_FLOAT", "tensorShape": {"dim": [{"size": "1"}, {"size": "1"}, {"size": "1632"}, {"size": "272"}]}}}, "dtype": {"type": "DT_FLOAT"}}}, {"name": "StatefulPartitionedCall/StatefulPartitionedCall/StatefulPartitionedCall/class_net/class-3/separable_conv2d_2_weights", "op": "Const", "attr": {"value": {"tensor": {"dtype": "DT_FLOAT", "tensorShape": {"dim": [{"size": "1"}, {"size": "1"}, {"size": "224"}, {"size": "224"}]}}}, "dtype": {"type": "DT_FLOAT"}}}, {"name": "StatefulPartitionedCall/StatefulPartitionedCall/StatefulPartitionedCall/efficientnet-lite4/blocks_22/conv2d_1/Conv2D_bn_offset", "op": "Const", "attr": {"value": {"tensor": {"dtype": "DT_FLOAT", "tensorShape": {"dim": [{"size": "272"}]}}}, "dtype": {"type": "DT_FLOAT"}}}, {"name": "StatefulPartitionedCall/StatefulPartitionedCall/StatefulPartitionedCall/efficientnet-lite4/blocks_23/conv2d/Conv2D_weights", "op": "Const", "attr": {"value": {"tensor": {"dtype": "DT_FLOAT", "tensorShape": {"dim": [{"size": "1"}, {"size": "1"}, {"size": "272"}, {"size": "1632"}]}}}, "dtype": {"type": "DT_FLOAT"}}}, {"name": "StatefulPartitionedCall/StatefulPartitionedCall/StatefulPartitionedCall/efficientnet-lite4/blocks_23/conv2d/Conv2D_bn_offset", "op": "Const", "attr": {"value": {"tensor": {"dtype": "DT_FLOAT", "tensorShape": {"dim": [{"size": "1632"}]}}}, "dtype": {"type": "DT_FLOAT"}}}, {"name": "StatefulPartitionedCall/StatefulPartitionedCall/StatefulPartitionedCall/class_net/class-3/separable_conv2d_2_bn_offset", "op": "Const", "attr": {"value": {"tensor": {"dtype": "DT_FLOAT", "tensorShape": {"dim": [{"size": "224"}]}}}, "dtype": {"type": "DT_FLOAT"}}}, {"name": "StatefulPartitionedCall/StatefulPartitionedCall/StatefulPartitionedCall/efficientnet-lite4/blocks_23/depthwise_conv2d/depthwise_weights", "op": "Const", "attr": {"value": {"tensor": {"dtype": "DT_FLOAT", "tensorShape": {"dim": [{"size": "5"}, {"size": "5"}, {"size": "1632"}, {"size": "1"}]}}}, "dtype": {"type": "DT_FLOAT"}}}, {"name": "StatefulPartitionedCall/StatefulPartitionedCall/StatefulPartitionedCall/efficientnet-lite4/blocks_23/depthwise_conv2d/depthwise_bn_offset", "op": "Const", "attr": {"value": {"tensor": {"dtype": "DT_FLOAT", "tensorShape": {"dim": [{"size": "1632"}]}}}, "dtype": {"type": "DT_FLOAT"}}}, {"name": "StatefulPartitionedCall/StatefulPartitionedCall/StatefulPartitionedCall/efficientnet-lite4/blocks_23/conv2d_1/Conv2D_weights", "op": "Const", "attr": {"value": {"tensor": {"dtype": "DT_FLOAT", "tensorShape": {"dim": [{"size": "1"}, {"size": "1"}, {"size": "1632"}, {"size": "272"}]}}}, "dtype": {"type": "DT_FLOAT"}}}, {"name": "StatefulPartitionedCall/StatefulPartitionedCall/StatefulPartitionedCall/efficientnet-lite4/blocks_23/conv2d_1/Conv2D_bn_offset", "op": "Const", "attr": {"value": {"tensor": {"dtype": "DT_FLOAT", "tensorShape": {"dim": [{"size": "272"}]}}}, "dtype": {"type": "DT_FLOAT"}}}, {"name": "StatefulPartitionedCall/StatefulPartitionedCall/StatefulPartitionedCall/efficientnet-lite4/blocks_24/conv2d/Conv2D_weights", "op": "Const", "attr": {"value": {"tensor": {"dtype": "DT_FLOAT", "tensorShape": {"dim": [{"size": "1"}, {"size": "1"}, {"size": "272"}, {"size": "1632"}]}}}, "dtype": {"type": "DT_FLOAT"}}}, {"name": "StatefulPartitionedCall/StatefulPartitionedCall/StatefulPartitionedCall/efficientnet-lite4/blocks_24/conv2d/Conv2D_bn_offset", "op": "Const", "attr": {"value": {"tensor": {"dtype": "DT_FLOAT", "tensorShape": {"dim": [{"size": "1632"}]}}}, "dtype": {"type": "DT_FLOAT"}}}, {"name": "StatefulPartitionedCall/StatefulPartitionedCall/StatefulPartitionedCall/efficientnet-lite4/blocks_24/depthwise_conv2d/depthwise_weights", "op": "Const", "attr": {"value": {"tensor": {"dtype": "DT_FLOAT", "tensorShape": {"dim": [{"size": "5"}, {"size": "5"}, {"size": "1632"}, {"size": "1"}]}}}, "dtype": {"type": "DT_FLOAT"}}}, {"name": "StatefulPartitionedCall/StatefulPartitionedCall/StatefulPartitionedCall/efficientnet-lite4/blocks_24/depthwise_conv2d/depthwise_bn_offset", "op": "Const", "attr": {"value": {"tensor": {"dtype": "DT_FLOAT", "tensorShape": {"dim": [{"size": "1632"}]}}}, "dtype": {"type": "DT_FLOAT"}}}, {"name": "StatefulPartitionedCall/StatefulPartitionedCall/StatefulPartitionedCall/efficientnet-lite4/blocks_24/conv2d_1/Conv2D_weights", "op": "Const", "attr": {"value": {"tensor": {"dtype": "DT_FLOAT", "tensorShape": {"dim": [{"size": "1"}, {"size": "1"}, {"size": "1632"}, {"size": "272"}]}}}, "dtype": {"type": "DT_FLOAT"}}}, {"name": "StatefulPartitionedCall/StatefulPartitionedCall/StatefulPartitionedCall/efficientnet-lite4/blocks_24/conv2d_1/Conv2D_bn_offset", "op": "Const", "attr": {"value": {"tensor": {"dtype": "DT_FLOAT", "tensorShape": {"dim": [{"size": "272"}]}}}, "dtype": {"type": "DT_FLOAT"}}}, {"name": "StatefulPartitionedCall/StatefulPartitionedCall/StatefulPartitionedCall/efficientnet-lite4/blocks_25/conv2d/Conv2D_weights", "op": "Const", "attr": {"value": {"tensor": {"dtype": "DT_FLOAT", "tensorShape": {"dim": [{"size": "1"}, {"size": "1"}, {"size": "272"}, {"size": "1632"}]}}}, "dtype": {"type": "DT_FLOAT"}}}, {"name": "StatefulPartitionedCall/StatefulPartitionedCall/StatefulPartitionedCall/efficientnet-lite4/blocks_25/conv2d/Conv2D_bn_offset", "op": "Const", "attr": {"value": {"tensor": {"dtype": "DT_FLOAT", "tensorShape": {"dim": [{"size": "1632"}]}}}, "dtype": {"type": "DT_FLOAT"}}}, {"name": "StatefulPartitionedCall/StatefulPartitionedCall/StatefulPartitionedCall/efficientnet-lite4/blocks_25/depthwise_conv2d/depthwise_weights", "op": "Const", "attr": {"value": {"tensor": {"dtype": "DT_FLOAT", "tensorShape": {"dim": [{"size": "5"}, {"size": "5"}, {"size": "1632"}, {"size": "1"}]}}}, "dtype": {"type": "DT_FLOAT"}}}, {"name": "StatefulPartitionedCall/StatefulPartitionedCall/StatefulPartitionedCall/efficientnet-lite4/blocks_25/depthwise_conv2d/depthwise_bn_offset", "op": "Const", "attr": {"value": {"tensor": {"dtype": "DT_FLOAT", "tensorShape": {"dim": [{"size": "1632"}]}}}, "dtype": {"type": "DT_FLOAT"}}}, {"name": "StatefulPartitionedCall/StatefulPartitionedCall/StatefulPartitionedCall/efficientnet-lite4/blocks_25/conv2d_1/Conv2D_weights", "op": "Const", "attr": {"value": {"tensor": {"dtype": "DT_FLOAT", "tensorShape": {"dim": [{"size": "1"}, {"size": "1"}, {"size": "1632"}, {"size": "272"}]}}}, "dtype": {"type": "DT_FLOAT"}}}, {"name": "StatefulPartitionedCall/StatefulPartitionedCall/StatefulPartitionedCall/box_net/box-2/separable_conv2d_3_weights", "op": "Const", "attr": {"value": {"tensor": {"dtype": "DT_FLOAT", "tensorShape": {"dim": [{"size": "1"}, {"size": "1"}, {"size": "224"}, {"size": "224"}]}}}, "dtype": {"type": "DT_FLOAT"}}}, {"name": "StatefulPartitionedCall/StatefulPartitionedCall/StatefulPartitionedCall/efficientnet-lite4/blocks_25/conv2d_1/Conv2D_bn_offset", "op": "Const", "attr": {"value": {"tensor": {"dtype": "DT_FLOAT", "tensorShape": {"dim": [{"size": "272"}]}}}, "dtype": {"type": "DT_FLOAT"}}}, {"name": "StatefulPartitionedCall/StatefulPartitionedCall/StatefulPartitionedCall/efficientnet-lite4/blocks_26/conv2d/Conv2D_weights", "op": "Const", "attr": {"value": {"tensor": {"dtype": "DT_FLOAT", "tensorShape": {"dim": [{"size": "1"}, {"size": "1"}, {"size": "272"}, {"size": "1632"}]}}}, "dtype": {"type": "DT_FLOAT"}}}, {"name": "StatefulPartitionedCall/StatefulPartitionedCall/StatefulPartitionedCall/efficientnet-lite4/blocks_26/conv2d/Conv2D_bn_offset", "op": "Const", "attr": {"value": {"tensor": {"dtype": "DT_FLOAT", "tensorShape": {"dim": [{"size": "1632"}]}}}, "dtype": {"type": "DT_FLOAT"}}}, {"name": "StatefulPartitionedCall/StatefulPartitionedCall/StatefulPartitionedCall/box_net/box-2/separable_conv2d_3_bn_offset", "op": "Const", "attr": {"value": {"tensor": {"dtype": "DT_FLOAT", "tensorShape": {"dim": [{"size": "224"}]}}}, "dtype": {"type": "DT_FLOAT"}}}, {"name": "StatefulPartitionedCall/StatefulPartitionedCall/StatefulPartitionedCall/efficientnet-lite4/blocks_26/depthwise_conv2d/depthwise_weights", "op": "Const", "attr": {"value": {"tensor": {"dtype": "DT_FLOAT", "tensorShape": {"dim": [{"size": "5"}, {"size": "5"}, {"size": "1632"}, {"size": "1"}]}}}, "dtype": {"type": "DT_FLOAT"}}}, {"name": "StatefulPartitionedCall/StatefulPartitionedCall/StatefulPartitionedCall/efficientnet-lite4/blocks_26/depthwise_conv2d/depthwise_bn_offset", "op": "Const", "attr": {"value": {"tensor": {"dtype": "DT_FLOAT", "tensorShape": {"dim": [{"size": "1632"}]}}}, "dtype": {"type": "DT_FLOAT"}}}, {"name": "StatefulPartitionedCall/StatefulPartitionedCall/StatefulPartitionedCall/efficientnet-lite4/blocks_26/conv2d_1/Conv2D_weights", "op": "Const", "attr": {"value": {"tensor": {"dtype": "DT_FLOAT", "tensorShape": {"dim": [{"size": "1"}, {"size": "1"}, {"size": "1632"}, {"size": "272"}]}}}, "dtype": {"type": "DT_FLOAT"}}}, {"name": "StatefulPartitionedCall/StatefulPartitionedCall/StatefulPartitionedCall/efficientnet-lite4/blocks_26/conv2d_1/Conv2D_bn_offset", "op": "Const", "attr": {"value": {"tensor": {"dtype": "DT_FLOAT", "tensorShape": {"dim": [{"size": "272"}]}}}, "dtype": {"type": "DT_FLOAT"}}}, {"name": "StatefulPartitionedCall/StatefulPartitionedCall/StatefulPartitionedCall/efficientnet-lite4/blocks_27/conv2d/Conv2D_weights", "op": "Const", "attr": {"value": {"tensor": {"dtype": "DT_FLOAT", "tensorShape": {"dim": [{"size": "1"}, {"size": "1"}, {"size": "272"}, {"size": "1632"}]}}}, "dtype": {"type": "DT_FLOAT"}}}, {"name": "StatefulPartitionedCall/StatefulPartitionedCall/StatefulPartitionedCall/efficientnet-lite4/blocks_27/conv2d/Conv2D_bn_offset", "op": "Const", "attr": {"value": {"tensor": {"dtype": "DT_FLOAT", "tensorShape": {"dim": [{"size": "1632"}]}}}, "dtype": {"type": "DT_FLOAT"}}}, {"name": "StatefulPartitionedCall/StatefulPartitionedCall/StatefulPartitionedCall/efficientnet-lite4/blocks_27/depthwise_conv2d/depthwise_weights", "op": "Const", "attr": {"value": {"tensor": {"dtype": "DT_FLOAT", "tensorShape": {"dim": [{"size": "5"}, {"size": "5"}, {"size": "1632"}, {"size": "1"}]}}}, "dtype": {"type": "DT_FLOAT"}}}, {"name": "StatefulPartitionedCall/StatefulPartitionedCall/StatefulPartitionedCall/efficientnet-lite4/blocks_27/depthwise_conv2d/depthwise_bn_offset", "op": "Const", "attr": {"value": {"tensor": {"dtype": "DT_FLOAT", "tensorShape": {"dim": [{"size": "1632"}]}}}, "dtype": {"type": "DT_FLOAT"}}}, {"name": "StatefulPartitionedCall/StatefulPartitionedCall/StatefulPartitionedCall/efficientnet-lite4/blocks_27/conv2d_1/Conv2D_weights", "op": "Const", "attr": {"value": {"tensor": {"dtype": "DT_FLOAT", "tensorShape": {"dim": [{"size": "1"}, {"size": "1"}, {"size": "1632"}, {"size": "272"}]}}}, "dtype": {"type": "DT_FLOAT"}}}, {"name": "StatefulPartitionedCall/StatefulPartitionedCall/StatefulPartitionedCall/class_net/class-2/separable_conv2d_3_weights", "op": "Const", "attr": {"value": {"tensor": {"dtype": "DT_FLOAT", "tensorShape": {"dim": [{"size": "1"}, {"size": "1"}, {"size": "224"}, {"size": "224"}]}}}, "dtype": {"type": "DT_FLOAT"}}}, {"name": "StatefulPartitionedCall/StatefulPartitionedCall/StatefulPartitionedCall/efficientnet-lite4/blocks_27/conv2d_1/Conv2D_bn_offset", "op": "Const", "attr": {"value": {"tensor": {"dtype": "DT_FLOAT", "tensorShape": {"dim": [{"size": "272"}]}}}, "dtype": {"type": "DT_FLOAT"}}}, {"name": "StatefulPartitionedCall/StatefulPartitionedCall/StatefulPartitionedCall/efficientnet-lite4/blocks_28/conv2d/Conv2D_weights", "op": "Const", "attr": {"value": {"tensor": {"dtype": "DT_FLOAT", "tensorShape": {"dim": [{"size": "1"}, {"size": "1"}, {"size": "272"}, {"size": "1632"}]}}}, "dtype": {"type": "DT_FLOAT"}}}, {"name": "StatefulPartitionedCall/StatefulPartitionedCall/StatefulPartitionedCall/efficientnet-lite4/blocks_28/conv2d/Conv2D_bn_offset", "op": "Const", "attr": {"value": {"tensor": {"dtype": "DT_FLOAT", "tensorShape": {"dim": [{"size": "1632"}]}}}, "dtype": {"type": "DT_FLOAT"}}}, {"name": "StatefulPartitionedCall/StatefulPartitionedCall/StatefulPartitionedCall/class_net/class-2/separable_conv2d_3_bn_offset", "op": "Const", "attr": {"value": {"tensor": {"dtype": "DT_FLOAT", "tensorShape": {"dim": [{"size": "224"}]}}}, "dtype": {"type": "DT_FLOAT"}}}, {"name": "StatefulPartitionedCall/StatefulPartitionedCall/StatefulPartitionedCall/efficientnet-lite4/blocks_28/depthwise_conv2d/depthwise_weights", "op": "Const", "attr": {"value": {"tensor": {"dtype": "DT_FLOAT", "tensorShape": {"dim": [{"size": "5"}, {"size": "5"}, {"size": "1632"}, {"size": "1"}]}}}, "dtype": {"type": "DT_FLOAT"}}}, {"name": "StatefulPartitionedCall/StatefulPartitionedCall/StatefulPartitionedCall/efficientnet-lite4/blocks_28/depthwise_conv2d/depthwise_bn_offset", "op": "Const", "attr": {"value": {"tensor": {"dtype": "DT_FLOAT", "tensorShape": {"dim": [{"size": "1632"}]}}}, "dtype": {"type": "DT_FLOAT"}}}, {"name": "StatefulPartitionedCall/StatefulPartitionedCall/StatefulPartitionedCall/efficientnet-lite4/blocks_28/conv2d_1/Conv2D_weights", "op": "Const", "attr": {"value": {"tensor": {"dtype": "DT_FLOAT", "tensorShape": {"dim": [{"size": "1"}, {"size": "1"}, {"size": "1632"}, {"size": "272"}]}}}, "dtype": {"type": "DT_FLOAT"}}}, {"name": "StatefulPartitionedCall/StatefulPartitionedCall/StatefulPartitionedCall/efficientnet-lite4/blocks_28/conv2d_1/Conv2D_bn_offset", "op": "Const", "attr": {"value": {"tensor": {"dtype": "DT_FLOAT", "tensorShape": {"dim": [{"size": "272"}]}}}, "dtype": {"type": "DT_FLOAT"}}}, {"name": "StatefulPartitionedCall/StatefulPartitionedCall/StatefulPartitionedCall/efficientnet-lite4/blocks_29/conv2d/Conv2D_weights", "op": "Const", "attr": {"value": {"tensor": {"dtype": "DT_FLOAT", "tensorShape": {"dim": [{"size": "1"}, {"size": "1"}, {"size": "272"}, {"size": "1632"}]}}}, "dtype": {"type": "DT_FLOAT"}}}, {"name": "StatefulPartitionedCall/StatefulPartitionedCall/StatefulPartitionedCall/efficientnet-lite4/blocks_29/conv2d/Conv2D_bn_offset", "op": "Const", "attr": {"value": {"tensor": {"dtype": "DT_FLOAT", "tensorShape": {"dim": [{"size": "1632"}]}}}, "dtype": {"type": "DT_FLOAT"}}}, {"name": "StatefulPartitionedCall/StatefulPartitionedCall/StatefulPartitionedCall/efficientnet-lite4/blocks_29/depthwise_conv2d/depthwise_weights", "op": "Const", "attr": {"value": {"tensor": {"dtype": "DT_FLOAT", "tensorShape": {"dim": [{"size": "3"}, {"size": "3"}, {"size": "1632"}, {"size": "1"}]}}}, "dtype": {"type": "DT_FLOAT"}}}, {"name": "StatefulPartitionedCall/StatefulPartitionedCall/StatefulPartitionedCall/efficientnet-lite4/blocks_29/depthwise_conv2d/depthwise_bn_offset", "op": "Const", "attr": {"value": {"tensor": {"dtype": "DT_FLOAT", "tensorShape": {"dim": [{"size": "1632"}]}}}, "dtype": {"type": "DT_FLOAT"}}}, {"name": "StatefulPartitionedCall/StatefulPartitionedCall/StatefulPartitionedCall/efficientnet-lite4/blocks_29/conv2d_1/Conv2D_weights", "op": "Const", "attr": {"value": {"tensor": {"dtype": "DT_FLOAT", "tensorShape": {"dim": [{"size": "1"}, {"size": "1"}, {"size": "1632"}, {"size": "448"}]}}}, "dtype": {"type": "DT_FLOAT"}}}, {"name": "StatefulPartitionedCall/StatefulPartitionedCall/StatefulPartitionedCall/box_net/box-1/separable_conv2d_4_weights", "op": "Const", "attr": {"value": {"tensor": {"dtype": "DT_FLOAT", "tensorShape": {"dim": [{"size": "1"}, {"size": "1"}, {"size": "224"}, {"size": "224"}]}}}, "dtype": {"type": "DT_FLOAT"}}}, {"name": "StatefulPartitionedCall/StatefulPartitionedCall/StatefulPartitionedCall/efficientnet-lite4/blocks_29/conv2d_1/Conv2D_bn_offset", "op": "Const", "attr": {"value": {"tensor": {"dtype": "DT_FLOAT", "tensorShape": {"dim": [{"size": "448"}]}}}, "dtype": {"type": "DT_FLOAT"}}}, {"name": "StatefulPartitionedCall/StatefulPartitionedCall/StatefulPartitionedCall/fpn_cells/cell_0/fnode5/resample_0_2_10/conv2d/Conv2D_weights", "op": "Const", "attr": {"value": {"tensor": {"dtype": "DT_FLOAT", "tensorShape": {"dim": [{"size": "1"}, {"size": "1"}, {"size": "448"}, {"size": "224"}]}}}, "dtype": {"type": "DT_FLOAT"}}}, {"name": "StatefulPartitionedCall/StatefulPartitionedCall/StatefulPartitionedCall/fpn_cells/cell_0/fnode5/resample_0_2_10/conv2d/Conv2D_bn_offset", "op": "Const", "attr": {"value": {"tensor": {"dtype": "DT_FLOAT", "tensorShape": {"dim": [{"size": "224"}]}}}, "dtype": {"type": "DT_FLOAT"}}}, {"name": "StatefulPartitionedCall/StatefulPartitionedCall/StatefulPartitionedCall/fpn_cells/cell_0/fnode1/resample_0_2_6/conv2d/Conv2D_weights", "op": "Const", "attr": {"value": {"tensor": {"dtype": "DT_FLOAT", "tensorShape": {"dim": [{"size": "1"}, {"size": "1"}, {"size": "448"}, {"size": "224"}]}}}, "dtype": {"type": "DT_FLOAT"}}}, {"name": "StatefulPartitionedCall/StatefulPartitionedCall/StatefulPartitionedCall/box_net/box-1/separable_conv2d_4_bn_offset", "op": "Const", "attr": {"value": {"tensor": {"dtype": "DT_FLOAT", "tensorShape": {"dim": [{"size": "224"}]}}}, "dtype": {"type": "DT_FLOAT"}}}, {"name": "StatefulPartitionedCall/StatefulPartitionedCall/StatefulPartitionedCall/fpn_cells/cell_0/fnode1/resample_0_2_6/conv2d/Conv2D_bn_offset", "op": "Const", "attr": {"value": {"tensor": {"dtype": "DT_FLOAT", "tensorShape": {"dim": [{"size": "224"}]}}}, "dtype": {"type": "DT_FLOAT"}}}, {"name": "StatefulPartitionedCall/StatefulPartitionedCall/StatefulPartitionedCall/resample_p6/conv2d/Conv2D_weights", "op": "Const", "attr": {"value": {"tensor": {"dtype": "DT_FLOAT", "tensorShape": {"dim": [{"size": "1"}, {"size": "1"}, {"size": "448"}, {"size": "224"}]}}}, "dtype": {"type": "DT_FLOAT"}}}, {"name": "StatefulPartitionedCall/StatefulPartitionedCall/StatefulPartitionedCall/resample_p6/conv2d/Conv2D_bn_offset", "op": "Const", "attr": {"value": {"tensor": {"dtype": "DT_FLOAT", "tensorShape": {"dim": [{"size": "224"}]}}}, "dtype": {"type": "DT_FLOAT"}}}, {"name": "StatefulPartitionedCall/StatefulPartitionedCall/StatefulPartitionedCall/fpn_cells/cell_0/fnode0/op_after_combine5/conv/separable_conv2d_weights", "op": "Const", "attr": {"value": {"tensor": {"dtype": "DT_FLOAT", "tensorShape": {"dim": [{"size": "1"}, {"size": "1"}, {"size": "224"}, {"size": "224"}]}}}, "dtype": {"type": "DT_FLOAT"}}}, {"name": "StatefulPartitionedCall/StatefulPartitionedCall/StatefulPartitionedCall/fpn_cells/cell_0/fnode0/op_after_combine5/conv/separable_conv2d_bn_offset", "op": "Const", "attr": {"value": {"tensor": {"dtype": "DT_FLOAT", "tensorShape": {"dim": [{"size": "224"}]}}}, "dtype": {"type": "DT_FLOAT"}}}, {"name": "StatefulPartitionedCall/StatefulPartitionedCall/StatefulPartitionedCall/fpn_cells/cell_0/fnode1/op_after_combine6/conv/separable_conv2d_weights", "op": "Const", "attr": {"value": {"tensor": {"dtype": "DT_FLOAT", "tensorShape": {"dim": [{"size": "1"}, {"size": "1"}, {"size": "224"}, {"size": "224"}]}}}, "dtype": {"type": "DT_FLOAT"}}}, {"name": "StatefulPartitionedCall/StatefulPartitionedCall/StatefulPartitionedCall/fpn_cells/cell_0/fnode1/op_after_combine6/conv/separable_conv2d_bn_offset", "op": "Const", "attr": {"value": {"tensor": {"dtype": "DT_FLOAT", "tensorShape": {"dim": [{"size": "224"}]}}}, "dtype": {"type": "DT_FLOAT"}}}, {"name": "StatefulPartitionedCall/StatefulPartitionedCall/StatefulPartitionedCall/fpn_cells/cell_0/fnode2/op_after_combine7/conv/separable_conv2d_weights", "op": "Const", "attr": {"value": {"tensor": {"dtype": "DT_FLOAT", "tensorShape": {"dim": [{"size": "1"}, {"size": "1"}, {"size": "224"}, {"size": "224"}]}}}, "dtype": {"type": "DT_FLOAT"}}}, {"name": "StatefulPartitionedCall/StatefulPartitionedCall/StatefulPartitionedCall/class_net/class-1/separable_conv2d_4_weights", "op": "Const", "attr": {"value": {"tensor": {"dtype": "DT_FLOAT", "tensorShape": {"dim": [{"size": "1"}, {"size": "1"}, {"size": "224"}, {"size": "224"}]}}}, "dtype": {"type": "DT_FLOAT"}}}, {"name": "StatefulPartitionedCall/StatefulPartitionedCall/StatefulPartitionedCall/fpn_cells/cell_0/fnode2/op_after_combine7/conv/separable_conv2d_bn_offset", "op": "Const", "attr": {"value": {"tensor": {"dtype": "DT_FLOAT", "tensorShape": {"dim": [{"size": "224"}]}}}, "dtype": {"type": "DT_FLOAT"}}}, {"name": "StatefulPartitionedCall/StatefulPartitionedCall/StatefulPartitionedCall/fpn_cells/cell_0/fnode3/op_after_combine8/conv/separable_conv2d_weights", "op": "Const", "attr": {"value": {"tensor": {"dtype": "DT_FLOAT", "tensorShape": {"dim": [{"size": "1"}, {"size": "1"}, {"size": "224"}, {"size": "224"}]}}}, "dtype": {"type": "DT_FLOAT"}}}, {"name": "StatefulPartitionedCall/StatefulPartitionedCall/StatefulPartitionedCall/fpn_cells/cell_0/fnode3/op_after_combine8/conv/separable_conv2d_bn_offset", "op": "Const", "attr": {"value": {"tensor": {"dtype": "DT_FLOAT", "tensorShape": {"dim": [{"size": "224"}]}}}, "dtype": {"type": "DT_FLOAT"}}}, {"name": "StatefulPartitionedCall/StatefulPartitionedCall/StatefulPartitionedCall/fpn_cells/cell_0/fnode4/op_after_combine9/conv/separable_conv2d_weights", "op": "Const", "attr": {"value": {"tensor": {"dtype": "DT_FLOAT", "tensorShape": {"dim": [{"size": "1"}, {"size": "1"}, {"size": "224"}, {"size": "224"}]}}}, "dtype": {"type": "DT_FLOAT"}}}, {"name": "StatefulPartitionedCall/StatefulPartitionedCall/StatefulPartitionedCall/class_net/class-1/separable_conv2d_4_bn_offset", "op": "Const", "attr": {"value": {"tensor": {"dtype": "DT_FLOAT", "tensorShape": {"dim": [{"size": "224"}]}}}, "dtype": {"type": "DT_FLOAT"}}}, {"name": "StatefulPartitionedCall/StatefulPartitionedCall/StatefulPartitionedCall/fpn_cells/cell_0/fnode4/op_after_combine9/conv/separable_conv2d_bn_offset", "op": "Const", "attr": {"value": {"tensor": {"dtype": "DT_FLOAT", "tensorShape": {"dim": [{"size": "224"}]}}}, "dtype": {"type": "DT_FLOAT"}}}, {"name": "StatefulPartitionedCall/StatefulPartitionedCall/StatefulPartitionedCall/fpn_cells/cell_0/fnode5/op_after_combine10/conv/separable_conv2d_weights", "op": "Const", "attr": {"value": {"tensor": {"dtype": "DT_FLOAT", "tensorShape": {"dim": [{"size": "1"}, {"size": "1"}, {"size": "224"}, {"size": "224"}]}}}, "dtype": {"type": "DT_FLOAT"}}}, {"name": "StatefulPartitionedCall/StatefulPartitionedCall/StatefulPartitionedCall/fpn_cells/cell_0/fnode5/op_after_combine10/conv/separable_conv2d_bn_offset", "op": "Const", "attr": {"value": {"tensor": {"dtype": "DT_FLOAT", "tensorShape": {"dim": [{"size": "224"}]}}}, "dtype": {"type": "DT_FLOAT"}}}, {"name": "StatefulPartitionedCall/StatefulPartitionedCall/StatefulPartitionedCall/fpn_cells/cell_0/fnode6/op_after_combine11/conv/separable_conv2d_weights", "op": "Const", "attr": {"value": {"tensor": {"dtype": "DT_FLOAT", "tensorShape": {"dim": [{"size": "1"}, {"size": "1"}, {"size": "224"}, {"size": "224"}]}}}, "dtype": {"type": "DT_FLOAT"}}}, {"name": "StatefulPartitionedCall/StatefulPartitionedCall/StatefulPartitionedCall/fpn_cells/cell_0/fnode6/op_after_combine11/conv/separable_conv2d_bn_offset", "op": "Const", "attr": {"value": {"tensor": {"dtype": "DT_FLOAT", "tensorShape": {"dim": [{"size": "224"}]}}}, "dtype": {"type": "DT_FLOAT"}}}, {"name": "StatefulPartitionedCall/StatefulPartitionedCall/StatefulPartitionedCall/fpn_cells/cell_0/fnode7/op_after_combine12/conv/separable_conv2d_weights", "op": "Const", "attr": {"value": {"tensor": {"dtype": "DT_FLOAT", "tensorShape": {"dim": [{"size": "1"}, {"size": "1"}, {"size": "224"}, {"size": "224"}]}}}, "dtype": {"type": "DT_FLOAT"}}}, {"name": "StatefulPartitionedCall/StatefulPartitionedCall/StatefulPartitionedCall/fpn_cells/cell_0/fnode7/op_after_combine12/conv/separable_conv2d_bn_offset", "op": "Const", "attr": {"value": {"tensor": {"dtype": "DT_FLOAT", "tensorShape": {"dim": [{"size": "224"}]}}}, "dtype": {"type": "DT_FLOAT"}}}, {"name": "StatefulPartitionedCall/StatefulPartitionedCall/StatefulPartitionedCall/fpn_cells/cell_1/fnode0/op_after_combine5/conv/separable_conv2d_weights", "op": "Const", "attr": {"value": {"tensor": {"dtype": "DT_FLOAT", "tensorShape": {"dim": [{"size": "1"}, {"size": "1"}, {"size": "224"}, {"size": "224"}]}}}, "dtype": {"type": "DT_FLOAT"}}}, {"name": "StatefulPartitionedCall/StatefulPartitionedCall/StatefulPartitionedCall/box_net/box-3/separable_conv2d_3_weights", "op": "Const", "attr": {"value": {"tensor": {"dtype": "DT_FLOAT", "tensorShape": {"dim": [{"size": "1"}, {"size": "1"}, {"size": "224"}, {"size": "224"}]}}}, "dtype": {"type": "DT_FLOAT"}}}, {"name": "StatefulPartitionedCall/StatefulPartitionedCall/StatefulPartitionedCall/fpn_cells/cell_1/fnode0/op_after_combine5/conv/separable_conv2d_bn_offset", "op": "Const", "attr": {"value": {"tensor": {"dtype": "DT_FLOAT", "tensorShape": {"dim": [{"size": "224"}]}}}, "dtype": {"type": "DT_FLOAT"}}}, {"name": "StatefulPartitionedCall/StatefulPartitionedCall/StatefulPartitionedCall/fpn_cells/cell_1/fnode1/op_after_combine6/conv/separable_conv2d_weights", "op": "Const", "attr": {"value": {"tensor": {"dtype": "DT_FLOAT", "tensorShape": {"dim": [{"size": "1"}, {"size": "1"}, {"size": "224"}, {"size": "224"}]}}}, "dtype": {"type": "DT_FLOAT"}}}, {"name": "StatefulPartitionedCall/StatefulPartitionedCall/StatefulPartitionedCall/fpn_cells/cell_1/fnode1/op_after_combine6/conv/separable_conv2d_bn_offset", "op": "Const", "attr": {"value": {"tensor": {"dtype": "DT_FLOAT", "tensorShape": {"dim": [{"size": "224"}]}}}, "dtype": {"type": "DT_FLOAT"}}}, {"name": "StatefulPartitionedCall/StatefulPartitionedCall/StatefulPartitionedCall/fpn_cells/cell_1/fnode2/op_after_combine7/conv/separable_conv2d_weights", "op": "Const", "attr": {"value": {"tensor": {"dtype": "DT_FLOAT", "tensorShape": {"dim": [{"size": "1"}, {"size": "1"}, {"size": "224"}, {"size": "224"}]}}}, "dtype": {"type": "DT_FLOAT"}}}, {"name": "StatefulPartitionedCall/StatefulPartitionedCall/StatefulPartitionedCall/box_net/box-3/separable_conv2d_3_bn_offset", "op": "Const", "attr": {"value": {"tensor": {"dtype": "DT_FLOAT", "tensorShape": {"dim": [{"size": "224"}]}}}, "dtype": {"type": "DT_FLOAT"}}}, {"name": "StatefulPartitionedCall/StatefulPartitionedCall/StatefulPartitionedCall/fpn_cells/cell_1/fnode2/op_after_combine7/conv/separable_conv2d_bn_offset", "op": "Const", "attr": {"value": {"tensor": {"dtype": "DT_FLOAT", "tensorShape": {"dim": [{"size": "224"}]}}}, "dtype": {"type": "DT_FLOAT"}}}, {"name": "StatefulPartitionedCall/StatefulPartitionedCall/StatefulPartitionedCall/fpn_cells/cell_1/fnode3/op_after_combine8/conv/separable_conv2d_weights", "op": "Const", "attr": {"value": {"tensor": {"dtype": "DT_FLOAT", "tensorShape": {"dim": [{"size": "1"}, {"size": "1"}, {"size": "224"}, {"size": "224"}]}}}, "dtype": {"type": "DT_FLOAT"}}}, {"name": "StatefulPartitionedCall/StatefulPartitionedCall/StatefulPartitionedCall/fpn_cells/cell_1/fnode3/op_after_combine8/conv/separable_conv2d_bn_offset", "op": "Const", "attr": {"value": {"tensor": {"dtype": "DT_FLOAT", "tensorShape": {"dim": [{"size": "224"}]}}}, "dtype": {"type": "DT_FLOAT"}}}, {"name": "StatefulPartitionedCall/StatefulPartitionedCall/StatefulPartitionedCall/fpn_cells/cell_1/fnode4/op_after_combine9/conv/separable_conv2d_weights", "op": "Const", "attr": {"value": {"tensor": {"dtype": "DT_FLOAT", "tensorShape": {"dim": [{"size": "1"}, {"size": "1"}, {"size": "224"}, {"size": "224"}]}}}, "dtype": {"type": "DT_FLOAT"}}}, {"name": "StatefulPartitionedCall/StatefulPartitionedCall/StatefulPartitionedCall/fpn_cells/cell_1/fnode4/op_after_combine9/conv/separable_conv2d_bn_offset", "op": "Const", "attr": {"value": {"tensor": {"dtype": "DT_FLOAT", "tensorShape": {"dim": [{"size": "224"}]}}}, "dtype": {"type": "DT_FLOAT"}}}, {"name": "StatefulPartitionedCall/StatefulPartitionedCall/StatefulPartitionedCall/fpn_cells/cell_1/fnode5/op_after_combine10/conv/separable_conv2d_weights", "op": "Const", "attr": {"value": {"tensor": {"dtype": "DT_FLOAT", "tensorShape": {"dim": [{"size": "1"}, {"size": "1"}, {"size": "224"}, {"size": "224"}]}}}, "dtype": {"type": "DT_FLOAT"}}}, {"name": "StatefulPartitionedCall/StatefulPartitionedCall/StatefulPartitionedCall/fpn_cells/cell_1/fnode5/op_after_combine10/conv/separable_conv2d_bn_offset", "op": "Const", "attr": {"value": {"tensor": {"dtype": "DT_FLOAT", "tensorShape": {"dim": [{"size": "224"}]}}}, "dtype": {"type": "DT_FLOAT"}}}, {"name": "StatefulPartitionedCall/StatefulPartitionedCall/StatefulPartitionedCall/fpn_cells/cell_1/fnode6/op_after_combine11/conv/separable_conv2d_weights", "op": "Const", "attr": {"value": {"tensor": {"dtype": "DT_FLOAT", "tensorShape": {"dim": [{"size": "1"}, {"size": "1"}, {"size": "224"}, {"size": "224"}]}}}, "dtype": {"type": "DT_FLOAT"}}}, {"name": "StatefulPartitionedCall/StatefulPartitionedCall/StatefulPartitionedCall/fpn_cells/cell_1/fnode6/op_after_combine11/conv/separable_conv2d_bn_offset", "op": "Const", "attr": {"value": {"tensor": {"dtype": "DT_FLOAT", "tensorShape": {"dim": [{"size": "224"}]}}}, "dtype": {"type": "DT_FLOAT"}}}, {"name": "StatefulPartitionedCall/StatefulPartitionedCall/StatefulPartitionedCall/fpn_cells/cell_1/fnode7/op_after_combine12/conv/separable_conv2d_weights", "op": "Const", "attr": {"value": {"tensor": {"dtype": "DT_FLOAT", "tensorShape": {"dim": [{"size": "1"}, {"size": "1"}, {"size": "224"}, {"size": "224"}]}}}, "dtype": {"type": "DT_FLOAT"}}}, {"name": "StatefulPartitionedCall/StatefulPartitionedCall/StatefulPartitionedCall/fpn_cells/cell_1/fnode7/op_after_combine12/conv/separable_conv2d_bn_offset", "op": "Const", "attr": {"value": {"tensor": {"dtype": "DT_FLOAT", "tensorShape": {"dim": [{"size": "224"}]}}}, "dtype": {"type": "DT_FLOAT"}}}, {"name": "StatefulPartitionedCall/StatefulPartitionedCall/StatefulPartitionedCall/fpn_cells/cell_2/fnode0/op_after_combine5/conv/separable_conv2d_weights", "op": "Const", "attr": {"value": {"tensor": {"dtype": "DT_FLOAT", "tensorShape": {"dim": [{"size": "1"}, {"size": "1"}, {"size": "224"}, {"size": "224"}]}}}, "dtype": {"type": "DT_FLOAT"}}}, {"name": "StatefulPartitionedCall/StatefulPartitionedCall/StatefulPartitionedCall/fpn_cells/cell_2/fnode0/op_after_combine5/conv/separable_conv2d_bn_offset", "op": "Const", "attr": {"value": {"tensor": {"dtype": "DT_FLOAT", "tensorShape": {"dim": [{"size": "224"}]}}}, "dtype": {"type": "DT_FLOAT"}}}, {"name": "StatefulPartitionedCall/StatefulPartitionedCall/StatefulPartitionedCall/fpn_cells/cell_2/fnode1/op_after_combine6/conv/separable_conv2d_weights", "op": "Const", "attr": {"value": {"tensor": {"dtype": "DT_FLOAT", "tensorShape": {"dim": [{"size": "1"}, {"size": "1"}, {"size": "224"}, {"size": "224"}]}}}, "dtype": {"type": "DT_FLOAT"}}}, {"name": "StatefulPartitionedCall/StatefulPartitionedCall/StatefulPartitionedCall/class_net/class-3/separable_conv2d_3_weights", "op": "Const", "attr": {"value": {"tensor": {"dtype": "DT_FLOAT", "tensorShape": {"dim": [{"size": "1"}, {"size": "1"}, {"size": "224"}, {"size": "224"}]}}}, "dtype": {"type": "DT_FLOAT"}}}, {"name": "StatefulPartitionedCall/StatefulPartitionedCall/StatefulPartitionedCall/fpn_cells/cell_2/fnode1/op_after_combine6/conv/separable_conv2d_bn_offset", "op": "Const", "attr": {"value": {"tensor": {"dtype": "DT_FLOAT", "tensorShape": {"dim": [{"size": "224"}]}}}, "dtype": {"type": "DT_FLOAT"}}}, {"name": "StatefulPartitionedCall/StatefulPartitionedCall/StatefulPartitionedCall/fpn_cells/cell_2/fnode2/op_after_combine7/conv/separable_conv2d_weights", "op": "Const", "attr": {"value": {"tensor": {"dtype": "DT_FLOAT", "tensorShape": {"dim": [{"size": "1"}, {"size": "1"}, {"size": "224"}, {"size": "224"}]}}}, "dtype": {"type": "DT_FLOAT"}}}, {"name": "StatefulPartitionedCall/StatefulPartitionedCall/StatefulPartitionedCall/fpn_cells/cell_2/fnode2/op_after_combine7/conv/separable_conv2d_bn_offset", "op": "Const", "attr": {"value": {"tensor": {"dtype": "DT_FLOAT", "tensorShape": {"dim": [{"size": "224"}]}}}, "dtype": {"type": "DT_FLOAT"}}}, {"name": "StatefulPartitionedCall/StatefulPartitionedCall/StatefulPartitionedCall/fpn_cells/cell_2/fnode3/op_after_combine8/conv/separable_conv2d_weights", "op": "Const", "attr": {"value": {"tensor": {"dtype": "DT_FLOAT", "tensorShape": {"dim": [{"size": "1"}, {"size": "1"}, {"size": "224"}, {"size": "224"}]}}}, "dtype": {"type": "DT_FLOAT"}}}, {"name": "StatefulPartitionedCall/StatefulPartitionedCall/StatefulPartitionedCall/class_net/class-3/separable_conv2d_3_bn_offset", "op": "Const", "attr": {"value": {"tensor": {"dtype": "DT_FLOAT", "tensorShape": {"dim": [{"size": "224"}]}}}, "dtype": {"type": "DT_FLOAT"}}}, {"name": "StatefulPartitionedCall/StatefulPartitionedCall/StatefulPartitionedCall/fpn_cells/cell_2/fnode3/op_after_combine8/conv/separable_conv2d_bn_offset", "op": "Const", "attr": {"value": {"tensor": {"dtype": "DT_FLOAT", "tensorShape": {"dim": [{"size": "224"}]}}}, "dtype": {"type": "DT_FLOAT"}}}, {"name": "StatefulPartitionedCall/StatefulPartitionedCall/StatefulPartitionedCall/fpn_cells/cell_2/fnode4/op_after_combine9/conv/separable_conv2d_weights", "op": "Const", "attr": {"value": {"tensor": {"dtype": "DT_FLOAT", "tensorShape": {"dim": [{"size": "1"}, {"size": "1"}, {"size": "224"}, {"size": "224"}]}}}, "dtype": {"type": "DT_FLOAT"}}}, {"name": "StatefulPartitionedCall/StatefulPartitionedCall/StatefulPartitionedCall/fpn_cells/cell_2/fnode4/op_after_combine9/conv/separable_conv2d_bn_offset", "op": "Const", "attr": {"value": {"tensor": {"dtype": "DT_FLOAT", "tensorShape": {"dim": [{"size": "224"}]}}}, "dtype": {"type": "DT_FLOAT"}}}, {"name": "StatefulPartitionedCall/StatefulPartitionedCall/StatefulPartitionedCall/fpn_cells/cell_2/fnode5/op_after_combine10/conv/separable_conv2d_weights", "op": "Const", "attr": {"value": {"tensor": {"dtype": "DT_FLOAT", "tensorShape": {"dim": [{"size": "1"}, {"size": "1"}, {"size": "224"}, {"size": "224"}]}}}, "dtype": {"type": "DT_FLOAT"}}}, {"name": "StatefulPartitionedCall/StatefulPartitionedCall/StatefulPartitionedCall/fpn_cells/cell_2/fnode5/op_after_combine10/conv/separable_conv2d_bn_offset", "op": "Const", "attr": {"value": {"tensor": {"dtype": "DT_FLOAT", "tensorShape": {"dim": [{"size": "224"}]}}}, "dtype": {"type": "DT_FLOAT"}}}, {"name": "StatefulPartitionedCall/StatefulPartitionedCall/StatefulPartitionedCall/fpn_cells/cell_2/fnode6/op_after_combine11/conv/separable_conv2d_weights", "op": "Const", "attr": {"value": {"tensor": {"dtype": "DT_FLOAT", "tensorShape": {"dim": [{"size": "1"}, {"size": "1"}, {"size": "224"}, {"size": "224"}]}}}, "dtype": {"type": "DT_FLOAT"}}}, {"name": "StatefulPartitionedCall/StatefulPartitionedCall/StatefulPartitionedCall/fpn_cells/cell_2/fnode6/op_after_combine11/conv/separable_conv2d_bn_offset", "op": "Const", "attr": {"value": {"tensor": {"dtype": "DT_FLOAT", "tensorShape": {"dim": [{"size": "224"}]}}}, "dtype": {"type": "DT_FLOAT"}}}, {"name": "StatefulPartitionedCall/StatefulPartitionedCall/StatefulPartitionedCall/fpn_cells/cell_2/fnode7/op_after_combine12/conv/separable_conv2d_weights", "op": "Const", "attr": {"value": {"tensor": {"dtype": "DT_FLOAT", "tensorShape": {"dim": [{"size": "1"}, {"size": "1"}, {"size": "224"}, {"size": "224"}]}}}, "dtype": {"type": "DT_FLOAT"}}}, {"name": "StatefulPartitionedCall/StatefulPartitionedCall/StatefulPartitionedCall/fpn_cells/cell_2/fnode7/op_after_combine12/conv/separable_conv2d_bn_offset", "op": "Const", "attr": {"value": {"tensor": {"dtype": "DT_FLOAT", "tensorShape": {"dim": [{"size": "224"}]}}}, "dtype": {"type": "DT_FLOAT"}}}, {"name": "StatefulPartitionedCall/StatefulPartitionedCall/StatefulPartitionedCall/fpn_cells/cell_3/fnode0/op_after_combine5/conv/separable_conv2d_weights", "op": "Const", "attr": {"value": {"tensor": {"dtype": "DT_FLOAT", "tensorShape": {"dim": [{"size": "1"}, {"size": "1"}, {"size": "224"}, {"size": "224"}]}}}, "dtype": {"type": "DT_FLOAT"}}}, {"name": "StatefulPartitionedCall/StatefulPartitionedCall/StatefulPartitionedCall/fpn_cells/cell_3/fnode0/op_after_combine5/conv/separable_conv2d_bn_offset", "op": "Const", "attr": {"value": {"tensor": {"dtype": "DT_FLOAT", "tensorShape": {"dim": [{"size": "224"}]}}}, "dtype": {"type": "DT_FLOAT"}}}, {"name": "StatefulPartitionedCall/StatefulPartitionedCall/StatefulPartitionedCall/fpn_cells/cell_3/fnode1/op_after_combine6/conv/separable_conv2d_weights", "op": "Const", "attr": {"value": {"tensor": {"dtype": "DT_FLOAT", "tensorShape": {"dim": [{"size": "1"}, {"size": "1"}, {"size": "224"}, {"size": "224"}]}}}, "dtype": {"type": "DT_FLOAT"}}}, {"name": "StatefulPartitionedCall/StatefulPartitionedCall/StatefulPartitionedCall/fpn_cells/cell_3/fnode1/op_after_combine6/conv/separable_conv2d_bn_offset", "op": "Const", "attr": {"value": {"tensor": {"dtype": "DT_FLOAT", "tensorShape": {"dim": [{"size": "224"}]}}}, "dtype": {"type": "DT_FLOAT"}}}, {"name": "StatefulPartitionedCall/StatefulPartitionedCall/StatefulPartitionedCall/fpn_cells/cell_3/fnode2/op_after_combine7/conv/separable_conv2d_weights", "op": "Const", "attr": {"value": {"tensor": {"dtype": "DT_FLOAT", "tensorShape": {"dim": [{"size": "1"}, {"size": "1"}, {"size": "224"}, {"size": "224"}]}}}, "dtype": {"type": "DT_FLOAT"}}}, {"name": "StatefulPartitionedCall/StatefulPartitionedCall/StatefulPartitionedCall/box_net/box-2/separable_conv2d_4_weights", "op": "Const", "attr": {"value": {"tensor": {"dtype": "DT_FLOAT", "tensorShape": {"dim": [{"size": "1"}, {"size": "1"}, {"size": "224"}, {"size": "224"}]}}}, "dtype": {"type": "DT_FLOAT"}}}, {"name": "StatefulPartitionedCall/StatefulPartitionedCall/StatefulPartitionedCall/fpn_cells/cell_3/fnode2/op_after_combine7/conv/separable_conv2d_bn_offset", "op": "Const", "attr": {"value": {"tensor": {"dtype": "DT_FLOAT", "tensorShape": {"dim": [{"size": "224"}]}}}, "dtype": {"type": "DT_FLOAT"}}}, {"name": "StatefulPartitionedCall/StatefulPartitionedCall/StatefulPartitionedCall/fpn_cells/cell_3/fnode3/op_after_combine8/conv/separable_conv2d_weights", "op": "Const", "attr": {"value": {"tensor": {"dtype": "DT_FLOAT", "tensorShape": {"dim": [{"size": "1"}, {"size": "1"}, {"size": "224"}, {"size": "224"}]}}}, "dtype": {"type": "DT_FLOAT"}}}, {"name": "StatefulPartitionedCall/StatefulPartitionedCall/StatefulPartitionedCall/fpn_cells/cell_3/fnode3/op_after_combine8/conv/separable_conv2d_bn_offset", "op": "Const", "attr": {"value": {"tensor": {"dtype": "DT_FLOAT", "tensorShape": {"dim": [{"size": "224"}]}}}, "dtype": {"type": "DT_FLOAT"}}}, {"name": "StatefulPartitionedCall/StatefulPartitionedCall/StatefulPartitionedCall/fpn_cells/cell_3/fnode4/op_after_combine9/conv/separable_conv2d_weights", "op": "Const", "attr": {"value": {"tensor": {"dtype": "DT_FLOAT", "tensorShape": {"dim": [{"size": "1"}, {"size": "1"}, {"size": "224"}, {"size": "224"}]}}}, "dtype": {"type": "DT_FLOAT"}}}, {"name": "StatefulPartitionedCall/StatefulPartitionedCall/StatefulPartitionedCall/box_net/box-2/separable_conv2d_4_bn_offset", "op": "Const", "attr": {"value": {"tensor": {"dtype": "DT_FLOAT", "tensorShape": {"dim": [{"size": "224"}]}}}, "dtype": {"type": "DT_FLOAT"}}}, {"name": "StatefulPartitionedCall/StatefulPartitionedCall/StatefulPartitionedCall/fpn_cells/cell_3/fnode4/op_after_combine9/conv/separable_conv2d_bn_offset", "op": "Const", "attr": {"value": {"tensor": {"dtype": "DT_FLOAT", "tensorShape": {"dim": [{"size": "224"}]}}}, "dtype": {"type": "DT_FLOAT"}}}, {"name": "StatefulPartitionedCall/StatefulPartitionedCall/StatefulPartitionedCall/fpn_cells/cell_3/fnode5/op_after_combine10/conv/separable_conv2d_weights", "op": "Const", "attr": {"value": {"tensor": {"dtype": "DT_FLOAT", "tensorShape": {"dim": [{"size": "1"}, {"size": "1"}, {"size": "224"}, {"size": "224"}]}}}, "dtype": {"type": "DT_FLOAT"}}}, {"name": "StatefulPartitionedCall/StatefulPartitionedCall/StatefulPartitionedCall/fpn_cells/cell_3/fnode5/op_after_combine10/conv/separable_conv2d_bn_offset", "op": "Const", "attr": {"value": {"tensor": {"dtype": "DT_FLOAT", "tensorShape": {"dim": [{"size": "224"}]}}}, "dtype": {"type": "DT_FLOAT"}}}, {"name": "StatefulPartitionedCall/StatefulPartitionedCall/StatefulPartitionedCall/fpn_cells/cell_3/fnode6/op_after_combine11/conv/separable_conv2d_weights", "op": "Const", "attr": {"value": {"tensor": {"dtype": "DT_FLOAT", "tensorShape": {"dim": [{"size": "1"}, {"size": "1"}, {"size": "224"}, {"size": "224"}]}}}, "dtype": {"type": "DT_FLOAT"}}}, {"name": "StatefulPartitionedCall/StatefulPartitionedCall/StatefulPartitionedCall/fpn_cells/cell_3/fnode6/op_after_combine11/conv/separable_conv2d_bn_offset", "op": "Const", "attr": {"value": {"tensor": {"dtype": "DT_FLOAT", "tensorShape": {"dim": [{"size": "224"}]}}}, "dtype": {"type": "DT_FLOAT"}}}, {"name": "StatefulPartitionedCall/StatefulPartitionedCall/StatefulPartitionedCall/fpn_cells/cell_3/fnode7/op_after_combine12/conv/separable_conv2d_weights", "op": "Const", "attr": {"value": {"tensor": {"dtype": "DT_FLOAT", "tensorShape": {"dim": [{"size": "1"}, {"size": "1"}, {"size": "224"}, {"size": "224"}]}}}, "dtype": {"type": "DT_FLOAT"}}}, {"name": "StatefulPartitionedCall/StatefulPartitionedCall/StatefulPartitionedCall/fpn_cells/cell_3/fnode7/op_after_combine12/conv/separable_conv2d_bn_offset", "op": "Const", "attr": {"value": {"tensor": {"dtype": "DT_FLOAT", "tensorShape": {"dim": [{"size": "224"}]}}}, "dtype": {"type": "DT_FLOAT"}}}, {"name": "StatefulPartitionedCall/StatefulPartitionedCall/StatefulPartitionedCall/fpn_cells/cell_4/fnode0/op_after_combine5/conv/separable_conv2d_weights", "op": "Const", "attr": {"value": {"tensor": {"dtype": "DT_FLOAT", "tensorShape": {"dim": [{"size": "1"}, {"size": "1"}, {"size": "224"}, {"size": "224"}]}}}, "dtype": {"type": "DT_FLOAT"}}}, {"name": "StatefulPartitionedCall/StatefulPartitionedCall/StatefulPartitionedCall/class_net/class-2/separable_conv2d_4_weights", "op": "Const", "attr": {"value": {"tensor": {"dtype": "DT_FLOAT", "tensorShape": {"dim": [{"size": "1"}, {"size": "1"}, {"size": "224"}, {"size": "224"}]}}}, "dtype": {"type": "DT_FLOAT"}}}, {"name": "StatefulPartitionedCall/StatefulPartitionedCall/StatefulPartitionedCall/fpn_cells/cell_4/fnode0/op_after_combine5/conv/separable_conv2d_bn_offset", "op": "Const", "attr": {"value": {"tensor": {"dtype": "DT_FLOAT", "tensorShape": {"dim": [{"size": "224"}]}}}, "dtype": {"type": "DT_FLOAT"}}}, {"name": "StatefulPartitionedCall/StatefulPartitionedCall/StatefulPartitionedCall/fpn_cells/cell_4/fnode1/op_after_combine6/conv/separable_conv2d_weights", "op": "Const", "attr": {"value": {"tensor": {"dtype": "DT_FLOAT", "tensorShape": {"dim": [{"size": "1"}, {"size": "1"}, {"size": "224"}, {"size": "224"}]}}}, "dtype": {"type": "DT_FLOAT"}}}, {"name": "StatefulPartitionedCall/StatefulPartitionedCall/StatefulPartitionedCall/fpn_cells/cell_4/fnode1/op_after_combine6/conv/separable_conv2d_bn_offset", "op": "Const", "attr": {"value": {"tensor": {"dtype": "DT_FLOAT", "tensorShape": {"dim": [{"size": "224"}]}}}, "dtype": {"type": "DT_FLOAT"}}}, {"name": "StatefulPartitionedCall/StatefulPartitionedCall/StatefulPartitionedCall/fpn_cells/cell_4/fnode2/op_after_combine7/conv/separable_conv2d_weights", "op": "Const", "attr": {"value": {"tensor": {"dtype": "DT_FLOAT", "tensorShape": {"dim": [{"size": "1"}, {"size": "1"}, {"size": "224"}, {"size": "224"}]}}}, "dtype": {"type": "DT_FLOAT"}}}, {"name": "StatefulPartitionedCall/StatefulPartitionedCall/StatefulPartitionedCall/class_net/class-2/separable_conv2d_4_bn_offset", "op": "Const", "attr": {"value": {"tensor": {"dtype": "DT_FLOAT", "tensorShape": {"dim": [{"size": "224"}]}}}, "dtype": {"type": "DT_FLOAT"}}}, {"name": "StatefulPartitionedCall/StatefulPartitionedCall/StatefulPartitionedCall/fpn_cells/cell_4/fnode2/op_after_combine7/conv/separable_conv2d_bn_offset", "op": "Const", "attr": {"value": {"tensor": {"dtype": "DT_FLOAT", "tensorShape": {"dim": [{"size": "224"}]}}}, "dtype": {"type": "DT_FLOAT"}}}, {"name": "StatefulPartitionedCall/StatefulPartitionedCall/StatefulPartitionedCall/fpn_cells/cell_4/fnode3/op_after_combine8/conv/separable_conv2d_weights", "op": "Const", "attr": {"value": {"tensor": {"dtype": "DT_FLOAT", "tensorShape": {"dim": [{"size": "1"}, {"size": "1"}, {"size": "224"}, {"size": "224"}]}}}, "dtype": {"type": "DT_FLOAT"}}}, {"name": "StatefulPartitionedCall/StatefulPartitionedCall/StatefulPartitionedCall/fpn_cells/cell_4/fnode3/op_after_combine8/conv/separable_conv2d_bn_offset", "op": "Const", "attr": {"value": {"tensor": {"dtype": "DT_FLOAT", "tensorShape": {"dim": [{"size": "224"}]}}}, "dtype": {"type": "DT_FLOAT"}}}, {"name": "StatefulPartitionedCall/StatefulPartitionedCall/StatefulPartitionedCall/fpn_cells/cell_4/fnode4/op_after_combine9/conv/separable_conv2d_weights", "op": "Const", "attr": {"value": {"tensor": {"dtype": "DT_FLOAT", "tensorShape": {"dim": [{"size": "1"}, {"size": "1"}, {"size": "224"}, {"size": "224"}]}}}, "dtype": {"type": "DT_FLOAT"}}}, {"name": "StatefulPartitionedCall/StatefulPartitionedCall/StatefulPartitionedCall/fpn_cells/cell_4/fnode4/op_after_combine9/conv/separable_conv2d_bn_offset", "op": "Const", "attr": {"value": {"tensor": {"dtype": "DT_FLOAT", "tensorShape": {"dim": [{"size": "224"}]}}}, "dtype": {"type": "DT_FLOAT"}}}, {"name": "StatefulPartitionedCall/StatefulPartitionedCall/StatefulPartitionedCall/fpn_cells/cell_4/fnode5/op_after_combine10/conv/separable_conv2d_weights", "op": "Const", "attr": {"value": {"tensor": {"dtype": "DT_FLOAT", "tensorShape": {"dim": [{"size": "1"}, {"size": "1"}, {"size": "224"}, {"size": "224"}]}}}, "dtype": {"type": "DT_FLOAT"}}}, {"name": "StatefulPartitionedCall/StatefulPartitionedCall/StatefulPartitionedCall/fpn_cells/cell_4/fnode5/op_after_combine10/conv/separable_conv2d_bn_offset", "op": "Const", "attr": {"value": {"tensor": {"dtype": "DT_FLOAT", "tensorShape": {"dim": [{"size": "224"}]}}}, "dtype": {"type": "DT_FLOAT"}}}, {"name": "StatefulPartitionedCall/StatefulPartitionedCall/StatefulPartitionedCall/fpn_cells/cell_4/fnode6/op_after_combine11/conv/separable_conv2d_weights", "op": "Const", "attr": {"value": {"tensor": {"dtype": "DT_FLOAT", "tensorShape": {"dim": [{"size": "1"}, {"size": "1"}, {"size": "224"}, {"size": "224"}]}}}, "dtype": {"type": "DT_FLOAT"}}}, {"name": "StatefulPartitionedCall/StatefulPartitionedCall/StatefulPartitionedCall/box_net/box-3/separable_conv2d_4_weights", "op": "Const", "attr": {"value": {"tensor": {"dtype": "DT_FLOAT", "tensorShape": {"dim": [{"size": "1"}, {"size": "1"}, {"size": "224"}, {"size": "224"}]}}}, "dtype": {"type": "DT_FLOAT"}}}, {"name": "StatefulPartitionedCall/StatefulPartitionedCall/StatefulPartitionedCall/fpn_cells/cell_4/fnode6/op_after_combine11/conv/separable_conv2d_bn_offset", "op": "Const", "attr": {"value": {"tensor": {"dtype": "DT_FLOAT", "tensorShape": {"dim": [{"size": "224"}]}}}, "dtype": {"type": "DT_FLOAT"}}}, {"name": "StatefulPartitionedCall/StatefulPartitionedCall/StatefulPartitionedCall/fpn_cells/cell_4/fnode7/op_after_combine12/conv/separable_conv2d_weights", "op": "Const", "attr": {"value": {"tensor": {"dtype": "DT_FLOAT", "tensorShape": {"dim": [{"size": "1"}, {"size": "1"}, {"size": "224"}, {"size": "224"}]}}}, "dtype": {"type": "DT_FLOAT"}}}, {"name": "StatefulPartitionedCall/StatefulPartitionedCall/StatefulPartitionedCall/fpn_cells/cell_4/fnode7/op_after_combine12/conv/separable_conv2d_bn_offset", "op": "Const", "attr": {"value": {"tensor": {"dtype": "DT_FLOAT", "tensorShape": {"dim": [{"size": "224"}]}}}, "dtype": {"type": "DT_FLOAT"}}}, {"name": "StatefulPartitionedCall/StatefulPartitionedCall/StatefulPartitionedCall/fpn_cells/cell_5/fnode0/op_after_combine5/conv/separable_conv2d_weights", "op": "Const", "attr": {"value": {"tensor": {"dtype": "DT_FLOAT", "tensorShape": {"dim": [{"size": "1"}, {"size": "1"}, {"size": "224"}, {"size": "224"}]}}}, "dtype": {"type": "DT_FLOAT"}}}, {"name": "StatefulPartitionedCall/StatefulPartitionedCall/StatefulPartitionedCall/box_net/box-3/separable_conv2d_4_bn_offset", "op": "Const", "attr": {"value": {"tensor": {"dtype": "DT_FLOAT", "tensorShape": {"dim": [{"size": "224"}]}}}, "dtype": {"type": "DT_FLOAT"}}}, {"name": "StatefulPartitionedCall/StatefulPartitionedCall/StatefulPartitionedCall/fpn_cells/cell_5/fnode0/op_after_combine5/conv/separable_conv2d_bn_offset", "op": "Const", "attr": {"value": {"tensor": {"dtype": "DT_FLOAT", "tensorShape": {"dim": [{"size": "224"}]}}}, "dtype": {"type": "DT_FLOAT"}}}, {"name": "StatefulPartitionedCall/StatefulPartitionedCall/StatefulPartitionedCall/fpn_cells/cell_5/fnode1/op_after_combine6/conv/separable_conv2d_weights", "op": "Const", "attr": {"value": {"tensor": {"dtype": "DT_FLOAT", "tensorShape": {"dim": [{"size": "1"}, {"size": "1"}, {"size": "224"}, {"size": "224"}]}}}, "dtype": {"type": "DT_FLOAT"}}}, {"name": "StatefulPartitionedCall/StatefulPartitionedCall/StatefulPartitionedCall/fpn_cells/cell_5/fnode1/op_after_combine6/conv/separable_conv2d_bn_offset", "op": "Const", "attr": {"value": {"tensor": {"dtype": "DT_FLOAT", "tensorShape": {"dim": [{"size": "224"}]}}}, "dtype": {"type": "DT_FLOAT"}}}, {"name": "StatefulPartitionedCall/StatefulPartitionedCall/StatefulPartitionedCall/fpn_cells/cell_5/fnode2/op_after_combine7/conv/separable_conv2d_weights", "op": "Const", "attr": {"value": {"tensor": {"dtype": "DT_FLOAT", "tensorShape": {"dim": [{"size": "1"}, {"size": "1"}, {"size": "224"}, {"size": "224"}]}}}, "dtype": {"type": "DT_FLOAT"}}}, {"name": "StatefulPartitionedCall/StatefulPartitionedCall/StatefulPartitionedCall/fpn_cells/cell_5/fnode2/op_after_combine7/conv/separable_conv2d_bn_offset", "op": "Const", "attr": {"value": {"tensor": {"dtype": "DT_FLOAT", "tensorShape": {"dim": [{"size": "224"}]}}}, "dtype": {"type": "DT_FLOAT"}}}, {"name": "StatefulPartitionedCall/StatefulPartitionedCall/StatefulPartitionedCall/fpn_cells/cell_5/fnode3/op_after_combine8/conv/separable_conv2d_weights", "op": "Const", "attr": {"value": {"tensor": {"dtype": "DT_FLOAT", "tensorShape": {"dim": [{"size": "1"}, {"size": "1"}, {"size": "224"}, {"size": "224"}]}}}, "dtype": {"type": "DT_FLOAT"}}}, {"name": "StatefulPartitionedCall/StatefulPartitionedCall/StatefulPartitionedCall/fpn_cells/cell_5/fnode3/op_after_combine8/conv/separable_conv2d_bn_offset", "op": "Const", "attr": {"value": {"tensor": {"dtype": "DT_FLOAT", "tensorShape": {"dim": [{"size": "224"}]}}}, "dtype": {"type": "DT_FLOAT"}}}, {"name": "StatefulPartitionedCall/StatefulPartitionedCall/StatefulPartitionedCall/fpn_cells/cell_5/fnode4/op_after_combine9/conv/separable_conv2d_weights", "op": "Const", "attr": {"value": {"tensor": {"dtype": "DT_FLOAT", "tensorShape": {"dim": [{"size": "1"}, {"size": "1"}, {"size": "224"}, {"size": "224"}]}}}, "dtype": {"type": "DT_FLOAT"}}}, {"name": "StatefulPartitionedCall/StatefulPartitionedCall/StatefulPartitionedCall/fpn_cells/cell_5/fnode4/op_after_combine9/conv/separable_conv2d_bn_offset", "op": "Const", "attr": {"value": {"tensor": {"dtype": "DT_FLOAT", "tensorShape": {"dim": [{"size": "224"}]}}}, "dtype": {"type": "DT_FLOAT"}}}, {"name": "StatefulPartitionedCall/StatefulPartitionedCall/StatefulPartitionedCall/fpn_cells/cell_5/fnode5/op_after_combine10/conv/separable_conv2d_weights", "op": "Const", "attr": {"value": {"tensor": {"dtype": "DT_FLOAT", "tensorShape": {"dim": [{"size": "1"}, {"size": "1"}, {"size": "224"}, {"size": "224"}]}}}, "dtype": {"type": "DT_FLOAT"}}}, {"name": "StatefulPartitionedCall/StatefulPartitionedCall/StatefulPartitionedCall/fpn_cells/cell_5/fnode5/op_after_combine10/conv/separable_conv2d_bn_offset", "op": "Const", "attr": {"value": {"tensor": {"dtype": "DT_FLOAT", "tensorShape": {"dim": [{"size": "224"}]}}}, "dtype": {"type": "DT_FLOAT"}}}, {"name": "StatefulPartitionedCall/StatefulPartitionedCall/StatefulPartitionedCall/fpn_cells/cell_5/fnode6/op_after_combine11/conv/separable_conv2d_weights", "op": "Const", "attr": {"value": {"tensor": {"dtype": "DT_FLOAT", "tensorShape": {"dim": [{"size": "1"}, {"size": "1"}, {"size": "224"}, {"size": "224"}]}}}, "dtype": {"type": "DT_FLOAT"}}}, {"name": "StatefulPartitionedCall/StatefulPartitionedCall/StatefulPartitionedCall/fpn_cells/cell_5/fnode6/op_after_combine11/conv/separable_conv2d_bn_offset", "op": "Const", "attr": {"value": {"tensor": {"dtype": "DT_FLOAT", "tensorShape": {"dim": [{"size": "224"}]}}}, "dtype": {"type": "DT_FLOAT"}}}, {"name": "StatefulPartitionedCall/StatefulPartitionedCall/StatefulPartitionedCall/fpn_cells/cell_5/fnode7/op_after_combine12/conv/separable_conv2d_weights", "op": "Const", "attr": {"value": {"tensor": {"dtype": "DT_FLOAT", "tensorShape": {"dim": [{"size": "1"}, {"size": "1"}, {"size": "224"}, {"size": "224"}]}}}, "dtype": {"type": "DT_FLOAT"}}}, {"name": "StatefulPartitionedCall/StatefulPartitionedCall/StatefulPartitionedCall/fpn_cells/cell_5/fnode7/op_after_combine12/conv/separable_conv2d_bn_offset", "op": "Const", "attr": {"value": {"tensor": {"dtype": "DT_FLOAT", "tensorShape": {"dim": [{"size": "224"}]}}}, "dtype": {"type": "DT_FLOAT"}}}, {"name": "StatefulPartitionedCall/StatefulPartitionedCall/StatefulPartitionedCall/fpn_cells/cell_6/fnode0/op_after_combine5/conv/separable_conv2d_weights", "op": "Const", "attr": {"value": {"tensor": {"dtype": "DT_FLOAT", "tensorShape": {"dim": [{"size": "1"}, {"size": "1"}, {"size": "224"}, {"size": "224"}]}}}, "dtype": {"type": "DT_FLOAT"}}}, {"name": "StatefulPartitionedCall/StatefulPartitionedCall/StatefulPartitionedCall/fpn_cells/cell_6/fnode0/op_after_combine5/conv/separable_conv2d_bn_offset", "op": "Const", "attr": {"value": {"tensor": {"dtype": "DT_FLOAT", "tensorShape": {"dim": [{"size": "224"}]}}}, "dtype": {"type": "DT_FLOAT"}}}, {"name": "StatefulPartitionedCall/StatefulPartitionedCall/StatefulPartitionedCall/fpn_cells/cell_6/fnode1/op_after_combine6/conv/separable_conv2d_weights", "op": "Const", "attr": {"value": {"tensor": {"dtype": "DT_FLOAT", "tensorShape": {"dim": [{"size": "1"}, {"size": "1"}, {"size": "224"}, {"size": "224"}]}}}, "dtype": {"type": "DT_FLOAT"}}}, {"name": "StatefulPartitionedCall/StatefulPartitionedCall/StatefulPartitionedCall/fpn_cells/cell_6/fnode1/op_after_combine6/conv/separable_conv2d_bn_offset", "op": "Const", "attr": {"value": {"tensor": {"dtype": "DT_FLOAT", "tensorShape": {"dim": [{"size": "224"}]}}}, "dtype": {"type": "DT_FLOAT"}}}, {"name": "StatefulPartitionedCall/StatefulPartitionedCall/StatefulPartitionedCall/fpn_cells/cell_6/fnode2/op_after_combine7/conv/separable_conv2d_weights", "op": "Const", "attr": {"value": {"tensor": {"dtype": "DT_FLOAT", "tensorShape": {"dim": [{"size": "1"}, {"size": "1"}, {"size": "224"}, {"size": "224"}]}}}, "dtype": {"type": "DT_FLOAT"}}}, {"name": "StatefulPartitionedCall/StatefulPartitionedCall/StatefulPartitionedCall/fpn_cells/cell_6/fnode2/op_after_combine7/conv/separable_conv2d_bn_offset", "op": "Const", "attr": {"value": {"tensor": {"dtype": "DT_FLOAT", "tensorShape": {"dim": [{"size": "224"}]}}}, "dtype": {"type": "DT_FLOAT"}}}, {"name": "StatefulPartitionedCall/StatefulPartitionedCall/StatefulPartitionedCall/fpn_cells/cell_6/fnode3/op_after_combine8/conv/separable_conv2d_weights", "op": "Const", "attr": {"value": {"tensor": {"dtype": "DT_FLOAT", "tensorShape": {"dim": [{"size": "1"}, {"size": "1"}, {"size": "224"}, {"size": "224"}]}}}, "dtype": {"type": "DT_FLOAT"}}}, {"name": "StatefulPartitionedCall/StatefulPartitionedCall/StatefulPartitionedCall/class_net/class-3/separable_conv2d_4_weights", "op": "Const", "attr": {"value": {"tensor": {"dtype": "DT_FLOAT", "tensorShape": {"dim": [{"size": "1"}, {"size": "1"}, {"size": "224"}, {"size": "224"}]}}}, "dtype": {"type": "DT_FLOAT"}}}, {"name": "StatefulPartitionedCall/StatefulPartitionedCall/StatefulPartitionedCall/fpn_cells/cell_6/fnode3/op_after_combine8/conv/separable_conv2d_bn_offset", "op": "Const", "attr": {"value": {"tensor": {"dtype": "DT_FLOAT", "tensorShape": {"dim": [{"size": "224"}]}}}, "dtype": {"type": "DT_FLOAT"}}}, {"name": "StatefulPartitionedCall/StatefulPartitionedCall/StatefulPartitionedCall/box_net/box-0/separable_conv2d_weights", "op": "Const", "attr": {"value": {"tensor": {"dtype": "DT_FLOAT", "tensorShape": {"dim": [{"size": "1"}, {"size": "1"}, {"size": "224"}, {"size": "224"}]}}}, "dtype": {"type": "DT_FLOAT"}}}, {"name": "StatefulPartitionedCall/StatefulPartitionedCall/StatefulPartitionedCall/box_net/box-0/separable_conv2d_bn_offset", "op": "Const", "attr": {"value": {"tensor": {"dtype": "DT_FLOAT", "tensorShape": {"dim": [{"size": "224"}]}}}, "dtype": {"type": "DT_FLOAT"}}}, {"name": "StatefulPartitionedCall/StatefulPartitionedCall/StatefulPartitionedCall/class_net/class-3/separable_conv2d_4_bn_offset", "op": "Const", "attr": {"value": {"tensor": {"dtype": "DT_FLOAT", "tensorShape": {"dim": [{"size": "224"}]}}}, "dtype": {"type": "DT_FLOAT"}}}, {"name": "StatefulPartitionedCall/StatefulPartitionedCall/StatefulPartitionedCall/class_net/class-0/separable_conv2d_weights", "op": "Const", "attr": {"value": {"tensor": {"dtype": "DT_FLOAT", "tensorShape": {"dim": [{"size": "1"}, {"size": "1"}, {"size": "224"}, {"size": "224"}]}}}, "dtype": {"type": "DT_FLOAT"}}}, {"name": "StatefulPartitionedCall/StatefulPartitionedCall/StatefulPartitionedCall/class_net/class-0/separable_conv2d_bn_offset", "op": "Const", "attr": {"value": {"tensor": {"dtype": "DT_FLOAT", "tensorShape": {"dim": [{"size": "224"}]}}}, "dtype": {"type": "DT_FLOAT"}}}, {"name": "StatefulPartitionedCall/StatefulPartitionedCall/StatefulPartitionedCall/fpn_cells/cell_6/fnode4/op_after_combine9/conv/separable_conv2d_weights", "op": "Const", "attr": {"value": {"tensor": {"dtype": "DT_FLOAT", "tensorShape": {"dim": [{"size": "1"}, {"size": "1"}, {"size": "224"}, {"size": "224"}]}}}, "dtype": {"type": "DT_FLOAT"}}}, {"name": "StatefulPartitionedCall/StatefulPartitionedCall/StatefulPartitionedCall/fpn_cells/cell_6/fnode4/op_after_combine9/conv/separable_conv2d_bn_offset", "op": "Const", "attr": {"value": {"tensor": {"dtype": "DT_FLOAT", "tensorShape": {"dim": [{"size": "224"}]}}}, "dtype": {"type": "DT_FLOAT"}}}, {"name": "StatefulPartitionedCall/StatefulPartitionedCall/StatefulPartitionedCall/box_net/box-1/separable_conv2d_weights", "op": "Const", "attr": {"value": {"tensor": {"dtype": "DT_FLOAT", "tensorShape": {"dim": [{"size": "1"}, {"size": "1"}, {"size": "224"}, {"size": "224"}]}}}, "dtype": {"type": "DT_FLOAT"}}}, {"name": "StatefulPartitionedCall/StatefulPartitionedCall/StatefulPartitionedCall/box_net/box-1/separable_conv2d_bn_offset", "op": "Const", "attr": {"value": {"tensor": {"dtype": "DT_FLOAT", "tensorShape": {"dim": [{"size": "224"}]}}}, "dtype": {"type": "DT_FLOAT"}}}, {"name": "StatefulPartitionedCall/StatefulPartitionedCall/StatefulPartitionedCall/class_net/class-1/separable_conv2d_weights", "op": "Const", "attr": {"value": {"tensor": {"dtype": "DT_FLOAT", "tensorShape": {"dim": [{"size": "1"}, {"size": "1"}, {"size": "224"}, {"size": "224"}]}}}, "dtype": {"type": "DT_FLOAT"}}}, {"name": "StatefulPartitionedCall/StatefulPartitionedCall/StatefulPartitionedCall/class_net/class-1/separable_conv2d_bn_offset", "op": "Const", "attr": {"value": {"tensor": {"dtype": "DT_FLOAT", "tensorShape": {"dim": [{"size": "224"}]}}}, "dtype": {"type": "DT_FLOAT"}}}, {"name": "StatefulPartitionedCall/StatefulPartitionedCall/StatefulPartitionedCall/box_net/box-0/separable_conv2d_1_weights", "op": "Const", "attr": {"value": {"tensor": {"dtype": "DT_FLOAT", "tensorShape": {"dim": [{"size": "1"}, {"size": "1"}, {"size": "224"}, {"size": "224"}]}}}, "dtype": {"type": "DT_FLOAT"}}}, {"name": "StatefulPartitionedCall/StatefulPartitionedCall/StatefulPartitionedCall/box_net/box-0/separable_conv2d_1_bn_offset", "op": "Const", "attr": {"value": {"tensor": {"dtype": "DT_FLOAT", "tensorShape": {"dim": [{"size": "224"}]}}}, "dtype": {"type": "DT_FLOAT"}}}, {"name": "StatefulPartitionedCall/StatefulPartitionedCall/StatefulPartitionedCall/class_net/class-0/separable_conv2d_1_weights", "op": "Const", "attr": {"value": {"tensor": {"dtype": "DT_FLOAT", "tensorShape": {"dim": [{"size": "1"}, {"size": "1"}, {"size": "224"}, {"size": "224"}]}}}, "dtype": {"type": "DT_FLOAT"}}}, {"name": "StatefulPartitionedCall/StatefulPartitionedCall/StatefulPartitionedCall/class_net/class-0/separable_conv2d_1_bn_offset", "op": "Const", "attr": {"value": {"tensor": {"dtype": "DT_FLOAT", "tensorShape": {"dim": [{"size": "224"}]}}}, "dtype": {"type": "DT_FLOAT"}}}, {"name": "StatefulPartitionedCall/StatefulPartitionedCall/StatefulPartitionedCall/box_net/box-2/separable_conv2d_weights", "op": "Const", "attr": {"value": {"tensor": {"dtype": "DT_FLOAT", "tensorShape": {"dim": [{"size": "1"}, {"size": "1"}, {"size": "224"}, {"size": "224"}]}}}, "dtype": {"type": "DT_FLOAT"}}}, {"name": "StatefulPartitionedCall/StatefulPartitionedCall/StatefulPartitionedCall/box_net/box-2/separable_conv2d_bn_offset", "op": "Const", "attr": {"value": {"tensor": {"dtype": "DT_FLOAT", "tensorShape": {"dim": [{"size": "224"}]}}}, "dtype": {"type": "DT_FLOAT"}}}, {"name": "StatefulPartitionedCall/StatefulPartitionedCall/StatefulPartitionedCall/fpn_cells/cell_6/fnode5/op_after_combine10/conv/separable_conv2d_weights", "op": "Const", "attr": {"value": {"tensor": {"dtype": "DT_FLOAT", "tensorShape": {"dim": [{"size": "1"}, {"size": "1"}, {"size": "224"}, {"size": "224"}]}}}, "dtype": {"type": "DT_FLOAT"}}}, {"name": "StatefulPartitionedCall/StatefulPartitionedCall/StatefulPartitionedCall/fpn_cells/cell_6/fnode5/op_after_combine10/conv/separable_conv2d_bn_offset", "op": "Const", "attr": {"value": {"tensor": {"dtype": "DT_FLOAT", "tensorShape": {"dim": [{"size": "224"}]}}}, "dtype": {"type": "DT_FLOAT"}}}, {"name": "StatefulPartitionedCall/StatefulPartitionedCall/StatefulPartitionedCall/class_net/class-2/separable_conv2d_weights", "op": "Const", "attr": {"value": {"tensor": {"dtype": "DT_FLOAT", "tensorShape": {"dim": [{"size": "1"}, {"size": "1"}, {"size": "224"}, {"size": "224"}]}}}, "dtype": {"type": "DT_FLOAT"}}}, {"name": "StatefulPartitionedCall/StatefulPartitionedCall/StatefulPartitionedCall/class_net/class-2/separable_conv2d_bn_offset", "op": "Const", "attr": {"value": {"tensor": {"dtype": "DT_FLOAT", "tensorShape": {"dim": [{"size": "224"}]}}}, "dtype": {"type": "DT_FLOAT"}}}, {"name": "StatefulPartitionedCall/StatefulPartitionedCall/StatefulPartitionedCall/box_net/box-1/separable_conv2d_1_weights", "op": "Const", "attr": {"value": {"tensor": {"dtype": "DT_FLOAT", "tensorShape": {"dim": [{"size": "1"}, {"size": "1"}, {"size": "224"}, {"size": "224"}]}}}, "dtype": {"type": "DT_FLOAT"}}}, {"name": "StatefulPartitionedCall/StatefulPartitionedCall/StatefulPartitionedCall/box_net/box-1/separable_conv2d_1_bn_offset", "op": "Const", "attr": {"value": {"tensor": {"dtype": "DT_FLOAT", "tensorShape": {"dim": [{"size": "224"}]}}}, "dtype": {"type": "DT_FLOAT"}}}, {"name": "StatefulPartitionedCall/StatefulPartitionedCall/StatefulPartitionedCall/class_net/class-1/separable_conv2d_1_weights", "op": "Const", "attr": {"value": {"tensor": {"dtype": "DT_FLOAT", "tensorShape": {"dim": [{"size": "1"}, {"size": "1"}, {"size": "224"}, {"size": "224"}]}}}, "dtype": {"type": "DT_FLOAT"}}}, {"name": "StatefulPartitionedCall/StatefulPartitionedCall/StatefulPartitionedCall/class_net/class-1/separable_conv2d_1_bn_offset", "op": "Const", "attr": {"value": {"tensor": {"dtype": "DT_FLOAT", "tensorShape": {"dim": [{"size": "224"}]}}}, "dtype": {"type": "DT_FLOAT"}}}, {"name": "StatefulPartitionedCall/StatefulPartitionedCall/StatefulPartitionedCall/box_net/box-0/separable_conv2d_2_weights", "op": "Const", "attr": {"value": {"tensor": {"dtype": "DT_FLOAT", "tensorShape": {"dim": [{"size": "1"}, {"size": "1"}, {"size": "224"}, {"size": "224"}]}}}, "dtype": {"type": "DT_FLOAT"}}}, {"name": "StatefulPartitionedCall/StatefulPartitionedCall/StatefulPartitionedCall/box_net/box-0/separable_conv2d_2_bn_offset", "op": "Const", "attr": {"value": {"tensor": {"dtype": "DT_FLOAT", "tensorShape": {"dim": [{"size": "224"}]}}}, "dtype": {"type": "DT_FLOAT"}}}, {"name": "StatefulPartitionedCall/StatefulPartitionedCall/StatefulPartitionedCall/class_net/class-0/separable_conv2d_2_weights", "op": "Const", "attr": {"value": {"tensor": {"dtype": "DT_FLOAT", "tensorShape": {"dim": [{"size": "1"}, {"size": "1"}, {"size": "224"}, {"size": "224"}]}}}, "dtype": {"type": "DT_FLOAT"}}}, {"name": "StatefulPartitionedCall/StatefulPartitionedCall/StatefulPartitionedCall/class_net/class-0/separable_conv2d_2_bn_offset", "op": "Const", "attr": {"value": {"tensor": {"dtype": "DT_FLOAT", "tensorShape": {"dim": [{"size": "224"}]}}}, "dtype": {"type": "DT_FLOAT"}}}, {"name": "StatefulPartitionedCall/StatefulPartitionedCall/StatefulPartitionedCall/box_net/box-3/separable_conv2d_weights", "op": "Const", "attr": {"value": {"tensor": {"dtype": "DT_FLOAT", "tensorShape": {"dim": [{"size": "1"}, {"size": "1"}, {"size": "224"}, {"size": "224"}]}}}, "dtype": {"type": "DT_FLOAT"}}}, {"name": "StatefulPartitionedCall/StatefulPartitionedCall/StatefulPartitionedCall/box_net/box-3/separable_conv2d_bn_offset", "op": "Const", "attr": {"value": {"tensor": {"dtype": "DT_FLOAT", "tensorShape": {"dim": [{"size": "224"}]}}}, "dtype": {"type": "DT_FLOAT"}}}, {"name": "StatefulPartitionedCall/StatefulPartitionedCall/StatefulPartitionedCall/class_net/class-3/separable_conv2d_weights", "op": "Const", "attr": {"value": {"tensor": {"dtype": "DT_FLOAT", "tensorShape": {"dim": [{"size": "1"}, {"size": "1"}, {"size": "224"}, {"size": "224"}]}}}, "dtype": {"type": "DT_FLOAT"}}}, {"name": "StatefulPartitionedCall/StatefulPartitionedCall/StatefulPartitionedCall/class_net/class-3/separable_conv2d_bn_offset", "op": "Const", "attr": {"value": {"tensor": {"dtype": "DT_FLOAT", "tensorShape": {"dim": [{"size": "224"}]}}}, "dtype": {"type": "DT_FLOAT"}}}, {"name": "StatefulPartitionedCall/StatefulPartitionedCall/StatefulPartitionedCall/box_net/box-2/separable_conv2d_1_weights", "op": "Const", "attr": {"value": {"tensor": {"dtype": "DT_FLOAT", "tensorShape": {"dim": [{"size": "1"}, {"size": "1"}, {"size": "224"}, {"size": "224"}]}}}, "dtype": {"type": "DT_FLOAT"}}}, {"name": "StatefulPartitionedCall/StatefulPartitionedCall/StatefulPartitionedCall/box_net/box-2/separable_conv2d_1_bn_offset", "op": "Const", "attr": {"value": {"tensor": {"dtype": "DT_FLOAT", "tensorShape": {"dim": [{"size": "224"}]}}}, "dtype": {"type": "DT_FLOAT"}}}, {"name": "StatefulPartitionedCall/StatefulPartitionedCall/StatefulPartitionedCall/class_net/class-2/separable_conv2d_1_weights", "op": "Const", "attr": {"value": {"tensor": {"dtype": "DT_FLOAT", "tensorShape": {"dim": [{"size": "1"}, {"size": "1"}, {"size": "224"}, {"size": "224"}]}}}, "dtype": {"type": "DT_FLOAT"}}}, {"name": "StatefulPartitionedCall/StatefulPartitionedCall/StatefulPartitionedCall/class_net/class-2/separable_conv2d_1_bn_offset", "op": "Const", "attr": {"value": {"tensor": {"dtype": "DT_FLOAT", "tensorShape": {"dim": [{"size": "224"}]}}}, "dtype": {"type": "DT_FLOAT"}}}, {"name": "StatefulPartitionedCall/StatefulPartitionedCall/StatefulPartitionedCall/fpn_cells/cell_6/fnode6/op_after_combine11/conv/separable_conv2d_weights", "op": "Const", "attr": {"value": {"tensor": {"dtype": "DT_FLOAT", "tensorShape": {"dim": [{"size": "1"}, {"size": "1"}, {"size": "224"}, {"size": "224"}]}}}, "dtype": {"type": "DT_FLOAT"}}}, {"name": "StatefulPartitionedCall/StatefulPartitionedCall/StatefulPartitionedCall/fpn_cells/cell_6/fnode6/op_after_combine11/conv/separable_conv2d_bn_offset", "op": "Const", "attr": {"value": {"tensor": {"dtype": "DT_FLOAT", "tensorShape": {"dim": [{"size": "224"}]}}}, "dtype": {"type": "DT_FLOAT"}}}, {"name": "StatefulPartitionedCall/StatefulPartitionedCall/StatefulPartitionedCall/box_net/box-1/separable_conv2d_2_weights", "op": "Const", "attr": {"value": {"tensor": {"dtype": "DT_FLOAT", "tensorShape": {"dim": [{"size": "1"}, {"size": "1"}, {"size": "224"}, {"size": "224"}]}}}, "dtype": {"type": "DT_FLOAT"}}}, {"name": "StatefulPartitionedCall/StatefulPartitionedCall/StatefulPartitionedCall/box_net/box-1/separable_conv2d_2_bn_offset", "op": "Const", "attr": {"value": {"tensor": {"dtype": "DT_FLOAT", "tensorShape": {"dim": [{"size": "224"}]}}}, "dtype": {"type": "DT_FLOAT"}}}, {"name": "StatefulPartitionedCall/StatefulPartitionedCall/StatefulPartitionedCall/class_net/class-1/separable_conv2d_2_weights", "op": "Const", "attr": {"value": {"tensor": {"dtype": "DT_FLOAT", "tensorShape": {"dim": [{"size": "1"}, {"size": "1"}, {"size": "224"}, {"size": "224"}]}}}, "dtype": {"type": "DT_FLOAT"}}}, {"name": "StatefulPartitionedCall/StatefulPartitionedCall/StatefulPartitionedCall/class_net/class-1/separable_conv2d_2_bn_offset", "op": "Const", "attr": {"value": {"tensor": {"dtype": "DT_FLOAT", "tensorShape": {"dim": [{"size": "224"}]}}}, "dtype": {"type": "DT_FLOAT"}}}, {"name": "StatefulPartitionedCall/StatefulPartitionedCall/StatefulPartitionedCall/box_net/box-0/separable_conv2d_3_weights", "op": "Const", "attr": {"value": {"tensor": {"dtype": "DT_FLOAT", "tensorShape": {"dim": [{"size": "1"}, {"size": "1"}, {"size": "224"}, {"size": "224"}]}}}, "dtype": {"type": "DT_FLOAT"}}}, {"name": "StatefulPartitionedCall/StatefulPartitionedCall/StatefulPartitionedCall/box_net/box-0/separable_conv2d_3_bn_offset", "op": "Const", "attr": {"value": {"tensor": {"dtype": "DT_FLOAT", "tensorShape": {"dim": [{"size": "224"}]}}}, "dtype": {"type": "DT_FLOAT"}}}, {"name": "StatefulPartitionedCall/StatefulPartitionedCall/StatefulPartitionedCall/class_net/class-0/separable_conv2d_3_weights", "op": "Const", "attr": {"value": {"tensor": {"dtype": "DT_FLOAT", "tensorShape": {"dim": [{"size": "1"}, {"size": "1"}, {"size": "224"}, {"size": "224"}]}}}, "dtype": {"type": "DT_FLOAT"}}}, {"name": "StatefulPartitionedCall/StatefulPartitionedCall/StatefulPartitionedCall/class_net/class-0/separable_conv2d_3_bn_offset", "op": "Const", "attr": {"value": {"tensor": {"dtype": "DT_FLOAT", "tensorShape": {"dim": [{"size": "224"}]}}}, "dtype": {"type": "DT_FLOAT"}}}, {"name": "StatefulPartitionedCall/StatefulPartitionedCall/StatefulPartitionedCall/loop_body/Shape", "op": "Shape", "input": ["images"], "attr": {"T": {"type": "DT_UINT8"}, "out_type": {"type": "DT_INT32"}}, "experimentalType": {"typeId": "TFT_PRODUCT", "args": [{"typeId": "TFT_SHAPE_TENSOR", "args": [{"typeId": "TFT_INT32"}]}]}}, {"name": "StatefulPartitionedCall/StatefulPartitionedCall/StatefulPartitionedCall/Shape", "op": "Shape", "input": ["images"], "attr": {"T": {"type": "DT_UINT8"}, "out_type": {"type": "DT_INT32"}}, "experimentalType": {"typeId": "TFT_PRODUCT", "args": [{"typeId": "TFT_SHAPE_TENSOR", "args": [{"typeId": "TFT_INT32"}]}]}}, {"name": "StatefulPartitionedCall/StatefulPartitionedCall/StatefulPartitionedCall/loop_body_1/GatherV2_3/pfor/Select", "op": "Const", "input": ["^images"], "attr": {"value": {"tensor": {"dtype": "DT_INT64", "tensorShape": {}}}, "dtype": {"type": "DT_INT64"}}}, {"name": "StatefulPartitionedCall/StatefulPartitionedCall/StatefulPartitionedCall/clip_by_value/Minimum/y", "op": "Const", "input": ["^images"], "attr": {"value": {"tensor": {"dtype": "DT_FLOAT", "tensorShape": {"dim": [{"size": "4"}]}}}, "dtype": {"type": "DT_FLOAT"}}}, {"name": "StatefulPartitionedCall/StatefulPartitionedCall/StatefulPartitionedCall/clip_by_value/y", "op": "Const", "input": ["^images"], "attr": {"value": {"tensor": {"dtype": "DT_FLOAT", "tensorShape": {"dim": [{"size": "1"}]}}}, "dtype": {"type": "DT_FLOAT"}}}, {"name": "StatefulPartitionedCall/StatefulPartitionedCall/StatefulPartitionedCall/pfor/ExpandDims/dim", "op": "Const", "input": ["^images"], "attr": {"value": {"tensor": {"dtype": "DT_INT32", "tensorShape": {}}}, "dtype": {"type": "DT_INT32"}}}, {"name": "StatefulPartitionedCall/StatefulPartitionedCall/StatefulPartitionedCall/pfor/Reshape_1", "op": "Const", "input": ["^images"], "attr": {"value": {"tensor": {"dtype": "DT_INT32", "tensorShape": {"dim": [{}]}}}, "dtype": {"type": "DT_INT32"}}}, {"name": "StatefulPartitionedCall/StatefulPartitionedCall/StatefulPartitionedCall/pfor/concat/axis", "op": "Const", "input": ["^images"], "attr": {"value": {"tensor": {"dtype": "DT_INT32", "tensorShape": {}}}, "dtype": {"type": "DT_INT32"}}}, {"name": "StatefulPartitionedCall/StatefulPartitionedCall/StatefulPartitionedCall/ExpandDims_1/dim", "op": "Const", "input": ["^images"], "attr": {"value": {"tensor": {"dtype": "DT_INT32", "tensorShape": {}}}, "dtype": {"type": "DT_INT32"}}}, {"name": "StatefulPartitionedCall/StatefulPartitionedCall/StatefulPartitionedCall/ExpandDims_2/dim", "op": "Const", "input": ["^images"], "attr": {"value": {"tensor": {"dtype": "DT_INT32", "tensorShape": {}}}, "dtype": {"type": "DT_INT32"}}}, {"name": "StatefulPartitionedCall/StatefulPartitionedCall/StatefulPartitionedCall/loop_body_1/NonMaxSuppressionV5/pfor/TensorListConcatV2_1/element_shape", "op": "Const", "input": ["^images"], "attr": {"value": {"tensor": {"dtype": "DT_INT32", "tensorShape": {"dim": [{"size": "2"}]}}}, "dtype": {"type": "DT_INT32"}}}, {"name": "StatefulPartitionedCall/StatefulPartitionedCall/StatefulPartitionedCall/loop_body_1/NonMaxSuppressionV5/pfor/Const_2", "op": "Const", "input": ["^images"], "attr": {"value": {"tensor": {"dtype": "DT_INT64", "tensorShape": {"dim": [{}]}}}, "dtype": {"type": "DT_INT64"}}}, {"name": "StatefulPartitionedCall/StatefulPartitionedCall/StatefulPartitionedCall/loop_body_1/strided_slice_2/stack", "op": "Const", "input": ["^images"], "attr": {"value": {"tensor": {"dtype": "DT_INT32", "tensorShape": {"dim": [{"size": "1"}]}}}, "dtype": {"type": "DT_INT32"}}}, {"name": "StatefulPartitionedCall/StatefulPartitionedCall/StatefulPartitionedCall/loop_body_1/strided_slice_2/stack_1", "op": "Const", "input": ["^images"], "attr": {"value": {"tensor": {"dtype": "DT_INT32", "tensorShape": {"dim": [{"size": "1"}]}}}, "dtype": {"type": "DT_INT32"}}}, {"name": "StatefulPartitionedCall/StatefulPartitionedCall/StatefulPartitionedCall/loop_body_1/strided_slice_2/stack_2", "op": "Const", "input": ["^images"], "attr": {"value": {"tensor": {"dtype": "DT_INT32", "tensorShape": {"dim": [{"size": "1"}]}}}, "dtype": {"type": "DT_INT32"}}}, {"name": "StatefulPartitionedCall/StatefulPartitionedCall/StatefulPartitionedCall/loop_body_1/Greater_2/y", "op": "Const", "input": ["^images"], "attr": {"value": {"tensor": {"dtype": "DT_INT32", "tensorShape": {}}}, "dtype": {"type": "DT_INT32"}}}, {"name": "StatefulPartitionedCall/StatefulPartitionedCall/StatefulPartitionedCall/loop_body_1/SelectV2_2/e", "op": "Const", "input": ["^images"], "attr": {"value": {"tensor": {"dtype": "DT_INT32", "tensorShape": {}}}, "dtype": {"type": "DT_INT32"}}}, {"name": "StatefulPartitionedCall/StatefulPartitionedCall/StatefulPartitionedCall/loop_body_1/GatherV2_2/pfor/GatherV2/axis", "op": "Const", "input": ["^images"], "attr": {"value": {"tensor": {"dtype": "DT_INT32", "tensorShape": {}}}, "dtype": {"type": "DT_INT32"}}}, {"name": "StatefulPartitionedCall/StatefulPartitionedCall/StatefulPartitionedCall/loop_body_1/NonMaxSuppressionV5/pfor/TensorListConcatV2/element_shape", "op": "Const", "input": ["^images"], "attr": {"value": {"tensor": {"dtype": "DT_INT32", "tensorShape": {"dim": [{"size": "2"}]}}}, "dtype": {"type": "DT_INT32"}}}, {"name": "StatefulPartitionedCall/StatefulPartitionedCall/StatefulPartitionedCall/loop_body_1/NonMaxSuppressionV5/pfor/Const_1", "op": "Const", "input": ["^images"], "attr": {"value": {"tensor": {"dtype": "DT_INT64", "tensorShape": {"dim": [{}]}}}, "dtype": {"type": "DT_INT64"}}}, {"name": "StatefulPartitionedCall/StatefulPartitionedCall/StatefulPartitionedCall/loop_body_1/GatherV2_4/pfor/Select", "op": "Const", "input": ["^images"], "attr": {"value": {"tensor": {"dtype": "DT_INT64", "tensorShape": {}}}, "dtype": {"type": "DT_INT64"}}}, {"name": "StatefulPartitionedCall/StatefulPartitionedCall/StatefulPartitionedCall/loop_body_1/add/y", "op": "Const", "input": ["^images"], "attr": {"value": {"tensor": {"dtype": "DT_INT32", "tensorShape": {}}}, "dtype": {"type": "DT_INT32"}}}, {"name": "StatefulPartitionedCall/StatefulPartitionedCall/StatefulPartitionedCall/loop_body_1/NonMaxSuppressionV5/pfor/while/loop_counter", "op": "Const", "input": ["^images"], "attr": {"value": {"tensor": {"dtype": "DT_INT32", "tensorShape": {}}}, "dtype": {"type": "DT_INT32"}}}, {"name": "StatefulPartitionedCall/StatefulPartitionedCall/StatefulPartitionedCall/loop_body_1/NonMaxSuppressionV5/pfor/while/maximum_iterations", "op": "Const", "input": ["^images"], "attr": {"value": {"tensor": {"dtype": "DT_INT32", "tensorShape": {}}}, "dtype": {"type": "DT_INT32"}}}, {"name": "StatefulPartitionedCall/StatefulPartitionedCall/StatefulPartitionedCall/loop_body_1/NonMaxSuppressionV5/pfor/Const", "op": "Const", "input": ["^images"], "attr": {"value": {"tensor": {"dtype": "DT_INT32", "tensorShape": {}}}, "dtype": {"type": "DT_INT32"}}}, {"name": "StatefulPartitionedCall/StatefulPartitionedCall/StatefulPartitionedCall/loop_body_1/NonMaxSuppressionV5/pfor/TensorArrayV2/element_shape", "op": "Const", "input": ["^images"], "attr": {"value": {"tensor": {"dtype": "DT_INT32", "tensorShape": {}}}, "dtype": {"type": "DT_INT32"}}}, {"name": "StatefulPartitionedCall/StatefulPartitionedCall/StatefulPartitionedCall/loop_body_1/NonMaxSuppressionV5/pfor/TensorArrayV2_1/element_shape", "op": "Const", "input": ["^images"], "attr": {"value": {"tensor": {"dtype": "DT_INT32", "tensorShape": {}}}, "dtype": {"type": "DT_INT32"}}}, {"name": "StatefulPartitionedCall/StatefulPartitionedCall/StatefulPartitionedCall/loop_body_1/NonMaxSuppressionV5/pfor/TensorArrayV2_2/element_shape", "op": "Const", "input": ["^images"], "attr": {"value": {"tensor": {"dtype": "DT_INT32", "tensorShape": {}}}, "dtype": {"type": "DT_INT32"}}}, {"name": "StatefulPartitionedCall/StatefulPartitionedCall/StatefulPartitionedCall/pfor_1/Reshape/shape", "op": "Const", "input": ["^images"], "attr": {"value": {"tensor": {"dtype": "DT_INT32", "tensorShape": {"dim": [{"size": "1"}]}}}, "dtype": {"type": "DT_INT32"}}}, {"name": "StatefulPartitionedCall/StatefulPartitionedCall/StatefulPartitionedCall/loop_body_1/NonMaxSuppressionV5/pfor/strided_slice/stack", "op": "Const", "input": ["^images"], "attr": {"value": {"tensor": {"dtype": "DT_INT32", "tensorShape": {"dim": [{"size": "1"}]}}}, "dtype": {"type": "DT_INT32"}}}, {"name": "StatefulPartitionedCall/StatefulPartitionedCall/StatefulPartitionedCall/loop_body_1/NonMaxSuppressionV5/pfor/strided_slice/stack_1", "op": "Const", "input": ["^images"], "attr": {"value": {"tensor": {"dtype": "DT_INT32", "tensorShape": {"dim": [{"size": "1"}]}}}, "dtype": {"type": "DT_INT32"}}}, {"name": "StatefulPartitionedCall/StatefulPartitionedCall/StatefulPartitionedCall/loop_body_1/NonMaxSuppressionV5/pfor/strided_slice/stack_2", "op": "Const", "input": ["^images"], "attr": {"value": {"tensor": {"dtype": "DT_INT32", "tensorShape": {"dim": [{"size": "1"}]}}}, "dtype": {"type": "DT_INT32"}}}, {"name": "StatefulPartitionedCall/StatefulPartitionedCall/StatefulPartitionedCall/loop_body_1/strided_slice/stack", "op": "Const", "input": ["^images"], "attr": {"value": {"tensor": {"dtype": "DT_INT32", "tensorShape": {"dim": [{"size": "1"}]}}}, "dtype": {"type": "DT_INT32"}}}, {"name": "StatefulPartitionedCall/StatefulPartitionedCall/StatefulPartitionedCall/loop_body_1/strided_slice/stack_1", "op": "Const", "input": ["^images"], "attr": {"value": {"tensor": {"dtype": "DT_INT32", "tensorShape": {"dim": [{"size": "1"}]}}}, "dtype": {"type": "DT_INT32"}}}, {"name": "StatefulPartitionedCall/StatefulPartitionedCall/StatefulPartitionedCall/loop_body_1/strided_slice/stack_2", "op": "Const", "input": ["^images"], "attr": {"value": {"tensor": {"dtype": "DT_INT32", "tensorShape": {"dim": [{"size": "1"}]}}}, "dtype": {"type": "DT_INT32"}}}, {"name": "StatefulPartitionedCall/StatefulPartitionedCall/StatefulPartitionedCall/loop_body_1/Greater/y", "op": "Const", "input": ["^images"], "attr": {"value": {"tensor": {"dtype": "DT_INT32", "tensorShape": {}}}, "dtype": {"type": "DT_INT32"}}}, {"name": "StatefulPartitionedCall/StatefulPartitionedCall/StatefulPartitionedCall/loop_body_1/SelectV2/e", "op": "Const", "input": ["^images"], "attr": {"value": {"tensor": {"dtype": "DT_INT32", "tensorShape": {}}}, "dtype": {"type": "DT_INT32"}}}, {"name": "StatefulPartitionedCall/StatefulPartitionedCall/StatefulPartitionedCall/loop_body_1/GatherV2/pfor/GatherV2/axis", "op": "Const", "input": ["^images"], "attr": {"value": {"tensor": {"dtype": "DT_INT32", "tensorShape": {}}}, "dtype": {"type": "DT_INT32"}}}, {"name": "StatefulPartitionedCall/StatefulPartitionedCall/StatefulPartitionedCall/loop_body_1/strided_slice_1/stack", "op": "Const", "input": ["^images"], "attr": {"value": {"tensor": {"dtype": "DT_INT32", "tensorShape": {"dim": [{"size": "1"}]}}}, "dtype": {"type": "DT_INT32"}}}, {"name": "StatefulPartitionedCall/StatefulPartitionedCall/StatefulPartitionedCall/loop_body_1/strided_slice_1/stack_1", "op": "Const", "input": ["^images"], "attr": {"value": {"tensor": {"dtype": "DT_INT32", "tensorShape": {"dim": [{"size": "1"}]}}}, "dtype": {"type": "DT_INT32"}}}, {"name": "StatefulPartitionedCall/StatefulPartitionedCall/StatefulPartitionedCall/loop_body_1/strided_slice_1/stack_2", "op": "Const", "input": ["^images"], "attr": {"value": {"tensor": {"dtype": "DT_INT32", "tensorShape": {"dim": [{"size": "1"}]}}}, "dtype": {"type": "DT_INT32"}}}, {"name": "StatefulPartitionedCall/StatefulPartitionedCall/StatefulPartitionedCall/loop_body_1/Greater_1/y", "op": "Const", "input": ["^images"], "attr": {"value": {"tensor": {"dtype": "DT_INT32", "tensorShape": {}}}, "dtype": {"type": "DT_INT32"}}}, {"name": "StatefulPartitionedCall/StatefulPartitionedCall/StatefulPartitionedCall/pfor_1/range/start", "op": "Const", "input": ["^images"], "attr": {"value": {"tensor": {"dtype": "DT_INT32", "tensorShape": {}}}, "dtype": {"type": "DT_INT32"}}}, {"name": "ConstantFolding/StatefulPartitionedCall/StatefulPartitionedCall/StatefulPartitionedCall/truediv_2_recip", "op": "Const", "input": ["^images"], "attr": {"value": {"tensor": {"dtype": "DT_FLOAT", "tensorShape": {}}}, "dtype": {"type": "DT_FLOAT"}}}, {"name": "ConstantFolding/StatefulPartitionedCall/StatefulPartitionedCall/StatefulPartitionedCall/truediv_3_recip", "op": "Const", "input": ["^images"], "attr": {"value": {"tensor": {"dtype": "DT_FLOAT", "tensorShape": {}}}, "dtype": {"type": "DT_FLOAT"}}}, {"name": "StatefulPartitionedCall/StatefulPartitionedCall/StatefulPartitionedCall/strided_slice_4/stack", "op": "Const", "input": ["^images"], "attr": {"value": {"tensor": {"dtype": "DT_INT32", "tensorShape": {"dim": [{"size": "2"}]}}}, "dtype": {"type": "DT_INT32"}}}, {"name": "StatefulPartitionedCall/StatefulPartitionedCall/StatefulPartitionedCall/strided_slice_4/stack_1", "op": "Const", "input": ["^images"], "attr": {"value": {"tensor": {"dtype": "DT_INT32", "tensorShape": {"dim": [{"size": "2"}]}}}, "dtype": {"type": "DT_INT32"}}}, {"name": "StatefulPartitionedCall/StatefulPartitionedCall/StatefulPartitionedCall/strided_slice_4/stack_2", "op": "Const", "input": ["^images"], "attr": {"value": {"tensor": {"dtype": "DT_INT32", "tensorShape": {"dim": [{"size": "2"}]}}}, "dtype": {"type": "DT_INT32"}}}, {"name": "StatefulPartitionedCall/StatefulPartitionedCall/StatefulPartitionedCall/strided_slice_5/stack", "op": "Const", "input": ["^images"], "attr": {"value": {"tensor": {"dtype": "DT_INT32", "tensorShape": {"dim": [{"size": "2"}]}}}, "dtype": {"type": "DT_INT32"}}}, {"name": "StatefulPartitionedCall/StatefulPartitionedCall/StatefulPartitionedCall/strided_slice_5/stack_1", "op": "Const", "input": ["^images"], "attr": {"value": {"tensor": {"dtype": "DT_INT32", "tensorShape": {"dim": [{"size": "2"}]}}}, "dtype": {"type": "DT_INT32"}}}, {"name": "StatefulPartitionedCall/StatefulPartitionedCall/StatefulPartitionedCall/strided_slice_5/stack_2", "op": "Const", "input": ["^images"], "attr": {"value": {"tensor": {"dtype": "DT_INT32", "tensorShape": {"dim": [{"size": "2"}]}}}, "dtype": {"type": "DT_INT32"}}}, {"name": "ConstantFolding/StatefulPartitionedCall/StatefulPartitionedCall/StatefulPartitionedCall/truediv_recip", "op": "Const", "input": ["^images"], "attr": {"value": {"tensor": {"dtype": "DT_FLOAT", "tensorShape": {}}}, "dtype": {"type": "DT_FLOAT"}}}, {"name": "StatefulPartitionedCall/StatefulPartitionedCall/StatefulPartitionedCall/strided_slice_8/stack", "op": "Const", "input": ["^images"], "attr": {"value": {"tensor": {"dtype": "DT_INT32", "tensorShape": {"dim": [{"size": "2"}]}}}, "dtype": {"type": "DT_INT32"}}}, {"name": "StatefulPartitionedCall/StatefulPartitionedCall/StatefulPartitionedCall/strided_slice_8/stack_1", "op": "Const", "input": ["^images"], "attr": {"value": {"tensor": {"dtype": "DT_INT32", "tensorShape": {"dim": [{"size": "2"}]}}}, "dtype": {"type": "DT_INT32"}}}, {"name": "StatefulPartitionedCall/StatefulPartitionedCall/StatefulPartitionedCall/strided_slice_8/stack_2", "op": "Const", "input": ["^images"], "attr": {"value": {"tensor": {"dtype": "DT_INT32", "tensorShape": {"dim": [{"size": "2"}]}}}, "dtype": {"type": "DT_INT32"}}}, {"name": "StatefulPartitionedCall/StatefulPartitionedCall/StatefulPartitionedCall/strided_slice_9/stack", "op": "Const", "input": ["^images"], "attr": {"value": {"tensor": {"dtype": "DT_INT32", "tensorShape": {"dim": [{"size": "2"}]}}}, "dtype": {"type": "DT_INT32"}}}, {"name": "StatefulPartitionedCall/StatefulPartitionedCall/StatefulPartitionedCall/strided_slice_9/stack_1", "op": "Const", "input": ["^images"], "attr": {"value": {"tensor": {"dtype": "DT_INT32", "tensorShape": {"dim": [{"size": "2"}]}}}, "dtype": {"type": "DT_INT32"}}}, {"name": "StatefulPartitionedCall/StatefulPartitionedCall/StatefulPartitionedCall/strided_slice_9/stack_2", "op": "Const", "input": ["^images"], "attr": {"value": {"tensor": {"dtype": "DT_INT32", "tensorShape": {"dim": [{"size": "2"}]}}}, "dtype": {"type": "DT_INT32"}}}, {"name": "ConstantFolding/StatefulPartitionedCall/StatefulPartitionedCall/StatefulPartitionedCall/truediv_4_recip", "op": "Const", "input": ["^images"], "attr": {"value": {"tensor": {"dtype": "DT_FLOAT", "tensorShape": {}}}, "dtype": {"type": "DT_FLOAT"}}}, {"name": "StatefulPartitionedCall/StatefulPartitionedCall/StatefulPartitionedCall/strided_slice_6/stack", "op": "Const", "input": ["^images"], "attr": {"value": {"tensor": {"dtype": "DT_INT32", "tensorShape": {"dim": [{"size": "2"}]}}}, "dtype": {"type": "DT_INT32"}}}, {"name": "StatefulPartitionedCall/StatefulPartitionedCall/StatefulPartitionedCall/strided_slice_6/stack_1", "op": "Const", "input": ["^images"], "attr": {"value": {"tensor": {"dtype": "DT_INT32", "tensorShape": {"dim": [{"size": "2"}]}}}, "dtype": {"type": "DT_INT32"}}}, {"name": "StatefulPartitionedCall/StatefulPartitionedCall/StatefulPartitionedCall/strided_slice_6/stack_2", "op": "Const", "input": ["^images"], "attr": {"value": {"tensor": {"dtype": "DT_INT32", "tensorShape": {"dim": [{"size": "2"}]}}}, "dtype": {"type": "DT_INT32"}}}, {"name": "StatefulPartitionedCall/StatefulPartitionedCall/StatefulPartitionedCall/strided_slice_7/stack", "op": "Const", "input": ["^images"], "attr": {"value": {"tensor": {"dtype": "DT_INT32", "tensorShape": {"dim": [{"size": "2"}]}}}, "dtype": {"type": "DT_INT32"}}}, {"name": "StatefulPartitionedCall/StatefulPartitionedCall/StatefulPartitionedCall/strided_slice_7/stack_1", "op": "Const", "input": ["^images"], "attr": {"value": {"tensor": {"dtype": "DT_INT32", "tensorShape": {"dim": [{"size": "2"}]}}}, "dtype": {"type": "DT_INT32"}}}, {"name": "StatefulPartitionedCall/StatefulPartitionedCall/StatefulPartitionedCall/strided_slice_7/stack_2", "op": "Const", "input": ["^images"], "attr": {"value": {"tensor": {"dtype": "DT_INT32", "tensorShape": {"dim": [{"size": "2"}]}}}, "dtype": {"type": "DT_INT32"}}}, {"name": "ConstantFolding/StatefulPartitionedCall/StatefulPartitionedCall/StatefulPartitionedCall/truediv_1_recip", "op": "Const", "input": ["^images"], "attr": {"value": {"tensor": {"dtype": "DT_FLOAT", "tensorShape": {}}}, "dtype": {"type": "DT_FLOAT"}}}, {"name": "StatefulPartitionedCall/StatefulPartitionedCall/StatefulPartitionedCall/Reshape_1/shape/1", "op": "Const", "input": ["^images"], "attr": {"value": {"tensor": {"dtype": "DT_INT32", "tensorShape": {}}}, "dtype": {"type": "DT_INT32"}}}, {"name": "StatefulPartitionedCall/StatefulPartitionedCall/StatefulPartitionedCall/Reshape_1/shape/2", "op": "Const", "input": ["^images"], "attr": {"value": {"tensor": {"dtype": "DT_INT32", "tensorShape": {}}}, "dtype": {"type": "DT_INT32"}}}, {"name": "StatefulPartitionedCall/StatefulPartitionedCall/StatefulPartitionedCall/Reshape_3/shape/1", "op": "Const", "input": ["^images"], "attr": {"value": {"tensor": {"dtype": "DT_INT32", "tensorShape": {}}}, "dtype": {"type": "DT_INT32"}}}, {"name": "StatefulPartitionedCall/StatefulPartitionedCall/StatefulPartitionedCall/Reshape_3/shape/2", "op": "Const", "input": ["^images"], "attr": {"value": {"tensor": {"dtype": "DT_INT32", "tensorShape": {}}}, "dtype": {"type": "DT_INT32"}}}, {"name": "StatefulPartitionedCall/StatefulPartitionedCall/StatefulPartitionedCall/Reshape_5/shape/1", "op": "Const", "input": ["^images"], "attr": {"value": {"tensor": {"dtype": "DT_INT32", "tensorShape": {}}}, "dtype": {"type": "DT_INT32"}}}, {"name": "StatefulPartitionedCall/StatefulPartitionedCall/StatefulPartitionedCall/Reshape_5/shape/2", "op": "Const", "input": ["^images"], "attr": {"value": {"tensor": {"dtype": "DT_INT32", "tensorShape": {}}}, "dtype": {"type": "DT_INT32"}}}, {"name": "StatefulPartitionedCall/StatefulPartitionedCall/StatefulPartitionedCall/Reshape_7/shape/1", "op": "Const", "input": ["^images"], "attr": {"value": {"tensor": {"dtype": "DT_INT32", "tensorShape": {}}}, "dtype": {"type": "DT_INT32"}}}, {"name": "StatefulPartitionedCall/StatefulPartitionedCall/StatefulPartitionedCall/Reshape_7/shape/2", "op": "Const", "input": ["^images"], "attr": {"value": {"tensor": {"dtype": "DT_INT32", "tensorShape": {}}}, "dtype": {"type": "DT_INT32"}}}, {"name": "StatefulPartitionedCall/StatefulPartitionedCall/StatefulPartitionedCall/Reshape_9/shape/1", "op": "Const", "input": ["^images"], "attr": {"value": {"tensor": {"dtype": "DT_INT32", "tensorShape": {}}}, "dtype": {"type": "DT_INT32"}}}, {"name": "StatefulPartitionedCall/StatefulPartitionedCall/StatefulPartitionedCall/Reshape_9/shape/2", "op": "Const", "input": ["^images"], "attr": {"value": {"tensor": {"dtype": "DT_INT32", "tensorShape": {}}}, "dtype": {"type": "DT_INT32"}}}, {"name": "StatefulPartitionedCall/StatefulPartitionedCall/StatefulPartitionedCall/concat_1/axis", "op": "Const", "input": ["^images"], "attr": {"value": {"tensor": {"dtype": "DT_INT32", "tensorShape": {}}}, "dtype": {"type": "DT_INT32"}}}, {"name": "StatefulPartitionedCall/StatefulPartitionedCall/StatefulPartitionedCall/strided_slice_10/stack", "op": "Const", "input": ["^images"], "attr": {"value": {"tensor": {"dtype": "DT_INT32", "tensorShape": {"dim": [{"size": "2"}]}}}, "dtype": {"type": "DT_INT32"}}}, {"name": "StatefulPartitionedCall/StatefulPartitionedCall/StatefulPartitionedCall/strided_slice_10/stack_1", "op": "Const", "input": ["^images"], "attr": {"value": {"tensor": {"dtype": "DT_INT32", "tensorShape": {"dim": [{"size": "2"}]}}}, "dtype": {"type": "DT_INT32"}}}, {"name": "StatefulPartitionedCall/StatefulPartitionedCall/StatefulPartitionedCall/strided_slice_10/stack_2", "op": "Const", "input": ["^images"], "attr": {"value": {"tensor": {"dtype": "DT_INT32", "tensorShape": {"dim": [{"size": "2"}]}}}, "dtype": {"type": "DT_INT32"}}}, {"name": "StatefulPartitionedCall/StatefulPartitionedCall/StatefulPartitionedCall/Const", "op": "Const", "input": ["^images"], "attr": {"value": {"tensor": {"dtype": "DT_FLOAT", "tensorShape": {"dim": [{"size": "49104"}, {"size": "4"}]}}}, "dtype": {"type": "DT_FLOAT"}}}, {"name": "StatefulPartitionedCall/StatefulPartitionedCall/StatefulPartitionedCall/range_1/start", "op": "Const", "input": ["^images"], "attr": {"value": {"tensor": {"dtype": "DT_INT32", "tensorShape": {}}}, "dtype": {"type": "DT_INT32"}}}, {"name": "StatefulPartitionedCall/StatefulPartitionedCall/StatefulPartitionedCall/strided_slice_3/stack", "op": "Const", "input": ["^images"], "attr": {"value": {"tensor": {"dtype": "DT_INT32", "tensorShape": {"dim": [{"size": "1"}]}}}, "dtype": {"type": "DT_INT32"}}}, {"name": "StatefulPartitionedCall/StatefulPartitionedCall/StatefulPartitionedCall/strided_slice_3/stack_1", "op": "Const", "input": ["^images"], "attr": {"value": {"tensor": {"dtype": "DT_INT32", "tensorShape": {"dim": [{"size": "1"}]}}}, "dtype": {"type": "DT_INT32"}}}, {"name": "StatefulPartitionedCall/StatefulPartitionedCall/StatefulPartitionedCall/strided_slice_3/stack_2", "op": "Const", "input": ["^images"], "attr": {"value": {"tensor": {"dtype": "DT_INT32", "tensorShape": {"dim": [{"size": "1"}]}}}, "dtype": {"type": "DT_INT32"}}}, {"name": "StatefulPartitionedCall/StatefulPartitionedCall/StatefulPartitionedCall/range_1/delta", "op": "Const", "input": ["^images"], "attr": {"value": {"tensor": {"dtype": "DT_INT32", "tensorShape": {}}}, "dtype": {"type": "DT_INT32"}}}, {"name": "StatefulPartitionedCall/StatefulPartitionedCall/StatefulPartitionedCall/ExpandDims/dim", "op": "Const", "input": ["^images"], "attr": {"value": {"tensor": {"dtype": "DT_INT32", "tensorShape": {}}}, "dtype": {"type": "DT_INT32"}}}, {"name": "StatefulPartitionedCall/StatefulPartitionedCall/StatefulPartitionedCall/strided_slice_2/stack", "op": "Const", "input": ["^images"], "attr": {"value": {"tensor": {"dtype": "DT_INT32", "tensorShape": {"dim": [{"size": "1"}]}}}, "dtype": {"type": "DT_INT32"}}}, {"name": "StatefulPartitionedCall/StatefulPartitionedCall/StatefulPartitionedCall/strided_slice_2/stack_1", "op": "Const", "input": ["^images"], "attr": {"value": {"tensor": {"dtype": "DT_INT32", "tensorShape": {"dim": [{"size": "1"}]}}}, "dtype": {"type": "DT_INT32"}}}, {"name": "StatefulPartitionedCall/StatefulPartitionedCall/StatefulPartitionedCall/strided_slice_2/stack_2", "op": "Const", "input": ["^images"], "attr": {"value": {"tensor": {"dtype": "DT_INT32", "tensorShape": {"dim": [{"size": "1"}]}}}, "dtype": {"type": "DT_INT32"}}}, {"name": "StatefulPartitionedCall/StatefulPartitionedCall/StatefulPartitionedCall/Tile/multiples/1", "op": "Const", "input": ["^images"], "attr": {"value": {"tensor": {"dtype": "DT_INT32", "tensorShape": {}}}, "dtype": {"type": "DT_INT32"}}}, {"name": "StatefulPartitionedCall/StatefulPartitionedCall/StatefulPartitionedCall/GatherV2/axis", "op": "Const", "input": ["^images"], "attr": {"value": {"tensor": {"dtype": "DT_INT32", "tensorShape": {}}}, "dtype": {"type": "DT_INT32"}}}, {"name": "StatefulPartitionedCall/StatefulPartitionedCall/StatefulPartitionedCall/strided_slice_11/stack", "op": "Const", "input": ["^images"], "attr": {"value": {"tensor": {"dtype": "DT_INT32", "tensorShape": {"dim": [{"size": "2"}]}}}, "dtype": {"type": "DT_INT32"}}}, {"name": "StatefulPartitionedCall/StatefulPartitionedCall/StatefulPartitionedCall/strided_slice_11/stack_1", "op": "Const", "input": ["^images"], "attr": {"value": {"tensor": {"dtype": "DT_INT32", "tensorShape": {"dim": [{"size": "2"}]}}}, "dtype": {"type": "DT_INT32"}}}, {"name": "StatefulPartitionedCall/StatefulPartitionedCall/StatefulPartitionedCall/strided_slice_11/stack_2", "op": "Const", "input": ["^images"], "attr": {"value": {"tensor": {"dtype": "DT_INT32", "tensorShape": {"dim": [{"size": "2"}]}}}, "dtype": {"type": "DT_INT32"}}}, {"name": "ConstantFolding/StatefulPartitionedCall/StatefulPartitionedCall/StatefulPartitionedCall/truediv_5_recip", "op": "Const", "input": ["^images"], "attr": {"value": {"tensor": {"dtype": "DT_FLOAT", "tensorShape": {}}}, "dtype": {"type": "DT_FLOAT"}}}, {"name": "StatefulPartitionedCall/StatefulPartitionedCall/StatefulPartitionedCall/strided_slice_12/stack", "op": "Const", "input": ["^images"], "attr": {"value": {"tensor": {"dtype": "DT_INT32", "tensorShape": {"dim": [{"size": "1"}]}}}, "dtype": {"type": "DT_INT32"}}}, {"name": "StatefulPartitionedCall/StatefulPartitionedCall/StatefulPartitionedCall/strided_slice_12/stack_1", "op": "Const", "input": ["^images"], "attr": {"value": {"tensor": {"dtype": "DT_INT32", "tensorShape": {"dim": [{"size": "1"}]}}}, "dtype": {"type": "DT_INT32"}}}, {"name": "StatefulPartitionedCall/StatefulPartitionedCall/StatefulPartitionedCall/strided_slice_12/stack_2", "op": "Const", "input": ["^images"], "attr": {"value": {"tensor": {"dtype": "DT_INT32", "tensorShape": {"dim": [{"size": "1"}]}}}, "dtype": {"type": "DT_INT32"}}}, {"name": "StatefulPartitionedCall/StatefulPartitionedCall/StatefulPartitionedCall/Max_1/reduction_indices", "op": "Const", "input": ["^images"], "attr": {"value": {"tensor": {"dtype": "DT_INT32", "tensorShape": {}}}, "dtype": {"type": "DT_INT32"}}}, {"name": "StatefulPartitionedCall/StatefulPartitionedCall/StatefulPartitionedCall/strided_slice_13/stack", "op": "Const", "input": ["^images"], "attr": {"value": {"tensor": {"dtype": "DT_INT32", "tensorShape": {"dim": [{"size": "1"}]}}}, "dtype": {"type": "DT_INT32"}}}, {"name": "StatefulPartitionedCall/StatefulPartitionedCall/StatefulPartitionedCall/strided_slice_13/stack_1", "op": "Const", "input": ["^images"], "attr": {"value": {"tensor": {"dtype": "DT_INT32", "tensorShape": {"dim": [{"size": "1"}]}}}, "dtype": {"type": "DT_INT32"}}}, {"name": "StatefulPartitionedCall/StatefulPartitionedCall/StatefulPartitionedCall/strided_slice_13/stack_2", "op": "Const", "input": ["^images"], "attr": {"value": {"tensor": {"dtype": "DT_INT32", "tensorShape": {"dim": [{"size": "1"}]}}}, "dtype": {"type": "DT_INT32"}}}, {"name": "StatefulPartitionedCall/StatefulPartitionedCall/StatefulPartitionedCall/Reshape/shape/1", "op": "Const", "input": ["^images"], "attr": {"value": {"tensor": {"dtype": "DT_INT32", "tensorShape": {}}}, "dtype": {"type": "DT_INT32"}}}, {"name": "StatefulPartitionedCall/StatefulPartitionedCall/StatefulPartitionedCall/Reshape/shape/2", "op": "Const", "input": ["^images"], "attr": {"value": {"tensor": {"dtype": "DT_INT32", "tensorShape": {}}}, "dtype": {"type": "DT_INT32"}}}, {"name": "StatefulPartitionedCall/StatefulPartitionedCall/StatefulPartitionedCall/Reshape_2/shape/1", "op": "Const", "input": ["^images"], "attr": {"value": {"tensor": {"dtype": "DT_INT32", "tensorShape": {}}}, "dtype": {"type": "DT_INT32"}}}, {"name": "StatefulPartitionedCall/StatefulPartitionedCall/StatefulPartitionedCall/Reshape_2/shape/2", "op": "Const", "input": ["^images"], "attr": {"value": {"tensor": {"dtype": "DT_INT32", "tensorShape": {}}}, "dtype": {"type": "DT_INT32"}}}, {"name": "StatefulPartitionedCall/StatefulPartitionedCall/StatefulPartitionedCall/Reshape_4/shape/1", "op": "Const", "input": ["^images"], "attr": {"value": {"tensor": {"dtype": "DT_INT32", "tensorShape": {}}}, "dtype": {"type": "DT_INT32"}}}, {"name": "StatefulPartitionedCall/StatefulPartitionedCall/StatefulPartitionedCall/Reshape_4/shape/2", "op": "Const", "input": ["^images"], "attr": {"value": {"tensor": {"dtype": "DT_INT32", "tensorShape": {}}}, "dtype": {"type": "DT_INT32"}}}, {"name": "StatefulPartitionedCall/StatefulPartitionedCall/StatefulPartitionedCall/Reshape_6/shape/1", "op": "Const", "input": ["^images"], "attr": {"value": {"tensor": {"dtype": "DT_INT32", "tensorShape": {}}}, "dtype": {"type": "DT_INT32"}}}, {"name": "StatefulPartitionedCall/StatefulPartitionedCall/StatefulPartitionedCall/Reshape_6/shape/2", "op": "Const", "input": ["^images"], "attr": {"value": {"tensor": {"dtype": "DT_INT32", "tensorShape": {}}}, "dtype": {"type": "DT_INT32"}}}, {"name": "StatefulPartitionedCall/StatefulPartitionedCall/StatefulPartitionedCall/loop_body/pad_to_bounding_box/Pad/pfor/concat/values_0", "op": "Const", "input": ["^images"], "attr": {"value": {"tensor": {"dtype": "DT_INT32", "tensorShape": {"dim": [{"size": "1"}, {"size": "2"}]}}}, "dtype": {"type": "DT_INT32"}}}, {"name": "StatefulPartitionedCall/StatefulPartitionedCall/StatefulPartit…
atefulPartitionedCall/StatefulPartitionedCall/strided_slice_11/stack_2", "shape": [2], "dtype": "int32"}, {"name": "ConstantFolding/StatefulPartitionedCall/StatefulPartitionedCall/StatefulPartitionedCall/truediv_5_recip", "shape": [], "dtype": "float32"}, {"name": "StatefulPartitionedCall/StatefulPartitionedCall/StatefulPartitionedCall/strided_slice_12/stack", "shape": [1], "dtype": "int32"}, {"name": "StatefulPartitionedCall/StatefulPartitionedCall/StatefulPartitionedCall/strided_slice_12/stack_1", "shape": [1], "dtype": "int32"}, {"name": "StatefulPartitionedCall/StatefulPartitionedCall/StatefulPartitionedCall/strided_slice_12/stack_2", "shape": [1], "dtype": "int32"}, {"name": "StatefulPartitionedCall/StatefulPartitionedCall/StatefulPartitionedCall/Max_1/reduction_indices", "shape": [], "dtype": "int32"}, {"name": "StatefulPartitionedCall/StatefulPartitionedCall/StatefulPartitionedCall/strided_slice_13/stack", "shape": [1], "dtype": "int32"}, {"name": "StatefulPartitionedCall/StatefulPartitionedCall/StatefulPartitionedCall/strided_slice_13/stack_1", "shape": [1], "dtype": "int32"}, {"name": "StatefulPartitionedCall/StatefulPartitionedCall/StatefulPartitionedCall/strided_slice_13/stack_2", "shape": [1], "dtype": "int32"}, {"name": "StatefulPartitionedCall/StatefulPartitionedCall/StatefulPartitionedCall/Reshape/shape/1", "shape": [], "dtype": "int32"}, {"name": "StatefulPartitionedCall/StatefulPartitionedCall/StatefulPartitionedCall/Reshape/shape/2", "shape": [], "dtype": "int32"}, {"name": "StatefulPartitionedCall/StatefulPartitionedCall/StatefulPartitionedCall/Reshape_2/shape/1", "shape": [], "dtype": "int32"}, {"name": "StatefulPartitionedCall/StatefulPartitionedCall/StatefulPartitionedCall/Reshape_2/shape/2", "shape": [], "dtype": "int32"}, {"name": "StatefulPartitionedCall/StatefulPartitionedCall/StatefulPartitionedCall/Reshape_4/shape/1", "shape": [], "dtype": "int32"}, {"name": "StatefulPartitionedCall/StatefulPartitionedCall/StatefulPartitionedCall/Reshape_4/shape/2", "shape": [], "dtype": "int32"}, {"name": "StatefulPartitionedCall/StatefulPartitionedCall/StatefulPartitionedCall/Reshape_6/shape/1", "shape": [], "dtype": "int32"}, {"name": "StatefulPartitionedCall/StatefulPartitionedCall/StatefulPartitionedCall/Reshape_6/shape/2", "shape": [], "dtype": "int32"}, {"name": "StatefulPartitionedCall/StatefulPartitionedCall/StatefulPartitionedCall/loop_body/pad_to_bounding_box/Pad/pfor/concat/values_0", "shape": [1, 2], "dtype": "int32"}, {"name": "StatefulPartitionedCall/StatefulPartitionedCall/StatefulPartitionedCall/loop_body/pad_to_bounding_box/stack/0", "shape": [], "dtype": "int32"}, {"name": "StatefulPartitionedCall/StatefulPartitionedCall/StatefulPartitionedCall/loop_body/pad_to_bounding_box/stack/1", "shape": [], "dtype": "int32"}, {"name": "StatefulPartitionedCall/StatefulPartitionedCall/StatefulPartitionedCall/loop_body/pad_to_bounding_box/stack/2", "shape": [], "dtype": "int32"}, {"name": "StatefulPartitionedCall/StatefulPartitionedCall/StatefulPartitionedCall/loop_body/pad_to_bounding_box/stack/4", "shape": [], "dtype": "int32"}, {"name": "StatefulPartitionedCall/StatefulPartitionedCall/StatefulPartitionedCall/loop_body/pad_to_bounding_box/stack/6", "shape": [], "dtype": "int32"}, {"name": "StatefulPartitionedCall/StatefulPartitionedCall/StatefulPartitionedCall/loop_body/pad_to_bounding_box/stack/7", "shape": [], "dtype": "int32"}, {"name": "StatefulPartitionedCall/StatefulPartitionedCall/StatefulPartitionedCall/loop_body/pad_to_bounding_box/Reshape/shape", "shape": [2], "dtype": "int32"}, {"name": "StatefulPartitionedCall/StatefulPartitionedCall/StatefulPartitionedCall/loop_body/pad_to_bounding_box/Pad/pfor/concat/axis", "shape": [], "dtype": "int32"}, {"name": "StatefulPartitionedCall/StatefulPartitionedCall/StatefulPartitionedCall/fpn_cells/cell_0/fnode0/resample_1_4_5/ResizeNearestNeighbor/size", "shape": [2], "dtype": "int32"}, {"name": "StatefulPartitionedCall/StatefulPartitionedCall/StatefulPartitionedCall/fpn_cells/cell_0/fnode1/resample_1_5_6/ResizeNearestNeighbor/size", "shape": [2], "dtype": "int32"}, {"name": "StatefulPartitionedCall/StatefulPartitionedCall/StatefulPartitionedCall/fpn_cells/cell_0/fnode2/resample_1_6_7/ResizeNearestNeighbor/size", "shape": [2], "dtype": "int32"}, {"name": "StatefulPartitionedCall/StatefulPartitionedCall/StatefulPartitionedCall/fpn_cells/cell_0/fnode3/resample_1_7_8/ResizeNearestNeighbor/size", "shape": [2], "dtype": "int32"}, {"name": "StatefulPartitionedCall/StatefulPartitionedCall/StatefulPartitionedCall/fpn_cells/cell_1/fnode0/resample_1_4_5/ResizeNearestNeighbor/size", "shape": [2], "dtype": "int32"}, {"name": "StatefulPartitionedCall/StatefulPartitionedCall/StatefulPartitionedCall/fpn_cells/cell_1/fnode1/resample_1_5_6/ResizeNearestNeighbor/size", "shape": [2], "dtype": "int32"}, {"name": "StatefulPartitionedCall/StatefulPartitionedCall/StatefulPartitionedCall/fpn_cells/cell_1/fnode2/resample_1_6_7/ResizeNearestNeighbor/size", "shape": [2], "dtype": "int32"}, {"name": "StatefulPartitionedCall/StatefulPartitionedCall/StatefulPartitionedCall/fpn_cells/cell_1/fnode3/resample_1_7_8/ResizeNearestNeighbor/size", "shape": [2], "dtype": "int32"}, {"name": "StatefulPartitionedCall/StatefulPartitionedCall/StatefulPartitionedCall/fpn_cells/cell_2/fnode0/resample_1_4_5/ResizeNearestNeighbor/size", "shape": [2], "dtype": "int32"}, {"name": "StatefulPartitionedCall/StatefulPartitionedCall/StatefulPartitionedCall/fpn_cells/cell_2/fnode1/resample_1_5_6/ResizeNearestNeighbor/size", "shape": [2], "dtype": "int32"}, {"name": "StatefulPartitionedCall/StatefulPartitionedCall/StatefulPartitionedCall/fpn_cells/cell_2/fnode2/resample_1_6_7/ResizeNearestNeighbor/size", "shape": [2], "dtype": "int32"}, {"name": "StatefulPartitionedCall/StatefulPartitionedCall/StatefulPartitionedCall/fpn_cells/cell_2/fnode3/resample_1_7_8/ResizeNearestNeighbor/size", "shape": [2], "dtype": "int32"}, {"name": "StatefulPartitionedCall/StatefulPartitionedCall/StatefulPartitionedCall/fpn_cells/cell_3/fnode0/resample_1_4_5/ResizeNearestNeighbor/size", "shape": [2], "dtype": "int32"}, {"name": "StatefulPartitionedCall/StatefulPartitionedCall/StatefulPartitionedCall/fpn_cells/cell_3/fnode1/resample_1_5_6/ResizeNearestNeighbor/size", "shape": [2], "dtype": "int32"}, {"name": "StatefulPartitionedCall/StatefulPartitionedCall/StatefulPartitionedCall/fpn_cells/cell_3/fnode2/resample_1_6_7/ResizeNearestNeighbor/size", "shape": [2], "dtype": "int32"}, {"name": "StatefulPartitionedCall/StatefulPartitionedCall/StatefulPartitionedCall/fpn_cells/cell_3/fnode3/resample_1_7_8/ResizeNearestNeighbor/size", "shape": [2], "dtype": "int32"}, {"name": "StatefulPartitionedCall/StatefulPartitionedCall/StatefulPartitionedCall/fpn_cells/cell_4/fnode0/resample_1_4_5/ResizeNearestNeighbor/size", "shape": [2], "dtype": "int32"}, {"name": "StatefulPartitionedCall/StatefulPartitionedCall/StatefulPartitionedCall/fpn_cells/cell_4/fnode1/resample_1_5_6/ResizeNearestNeighbor/size", "shape": [2], "dtype": "int32"}, {"name": "StatefulPartitionedCall/StatefulPartitionedCall/StatefulPartitionedCall/fpn_cells/cell_4/fnode2/resample_1_6_7/ResizeNearestNeighbor/size", "shape": [2], "dtype": "int32"}, {"name": "StatefulPartitionedCall/StatefulPartitionedCall/StatefulPartitionedCall/fpn_cells/cell_4/fnode3/resample_1_7_8/ResizeNearestNeighbor/size", "shape": [2], "dtype": "int32"}, {"name": "StatefulPartitionedCall/StatefulPartitionedCall/StatefulPartitionedCall/fpn_cells/cell_5/fnode0/resample_1_4_5/ResizeNearestNeighbor/size", "shape": [2], "dtype": "int32"}, {"name": "StatefulPartitionedCall/StatefulPartitionedCall/StatefulPartitionedCall/fpn_cells/cell_5/fnode1/resample_1_5_6/ResizeNearestNeighbor/size", "shape": [2], "dtype": "int32"}, {"name": "StatefulPartitionedCall/StatefulPartitionedCall/StatefulPartitionedCall/fpn_cells/cell_5/fnode2/resample_1_6_7/ResizeNearestNeighbor/size", "shape": [2], "dtype": "int32"}, {"name": "StatefulPartitionedCall/StatefulPartitionedCall/StatefulPartitionedCall/fpn_cells/cell_5/fnode3/resample_1_7_8/ResizeNearestNeighbor/size", "shape": [2], "dtype": "int32"}, {"name": "StatefulPartitionedCall/StatefulPartitionedCall/StatefulPartitionedCall/fpn_cells/cell_6/fnode0/resample_1_4_5/ResizeNearestNeighbor/size", "shape": [2], "dtype": "int32"}, {"name": "StatefulPartitionedCall/StatefulPartitionedCall/StatefulPartitionedCall/fpn_cells/cell_6/fnode1/resample_1_5_6/ResizeNearestNeighbor/size", "shape": [2], "dtype": "int32"}, {"name": "StatefulPartitionedCall/StatefulPartitionedCall/StatefulPartitionedCall/fpn_cells/cell_6/fnode2/resample_1_6_7/ResizeNearestNeighbor/size", "shape": [2], "dtype": "int32"}, {"name": "StatefulPartitionedCall/StatefulPartitionedCall/StatefulPartitionedCall/fpn_cells/cell_6/fnode3/resample_1_7_8/ResizeNearestNeighbor/size", "shape": [2], "dtype": "int32"}, {"name": "StatefulPartitionedCall/StatefulPartitionedCall/StatefulPartitionedCall/strided_slice_1/stack", "shape": [1], "dtype": "int32"}, {"name": "StatefulPartitionedCall/StatefulPartitionedCall/StatefulPartitionedCall/strided_slice_1/stack_1", "shape": [1], "dtype": "int32"}, {"name": "StatefulPartitionedCall/StatefulPartitionedCall/StatefulPartitionedCall/strided_slice_1/stack_2", "shape": [1], "dtype": "int32"}, {"name": "StatefulPartitionedCall/StatefulPartitionedCall/StatefulPartitionedCall/Reshape_8/shape/1", "shape": [], "dtype": "int32"}, {"name": "StatefulPartitionedCall/StatefulPartitionedCall/StatefulPartitionedCall/Reshape_8/shape/2", "shape": [], "dtype": "int32"}, {"name": "StatefulPartitionedCall/StatefulPartitionedCall/StatefulPartitionedCall/concat/axis", "shape": [], "dtype": "int32"}, {"name": "StatefulPartitionedCall/StatefulPartitionedCall/StatefulPartitionedCall/ArgMax/dimension", "shape": [], "dtype": "int32"}, {"name": "StatefulPartitionedCall/StatefulPartitionedCall/StatefulPartitionedCall/strided_slice_14/stack", "shape": [1], "dtype": "int32"}, {"name": "StatefulPartitionedCall/StatefulPartitionedCall/StatefulPartitionedCall/strided_slice_14/stack_1", "shape": [1], "dtype": "int32"}, {"name": "StatefulPartitionedCall/StatefulPartitionedCall/StatefulPartitionedCall/strided_slice_14/stack_2", "shape": [1], "dtype": "int32"}, {"name": "ConstantFolding/StatefulPartitionedCall/StatefulPartitionedCall/StatefulPartitionedCall/Max_2-reduction_indices", "shape": [1], "dtype": "int32"}, {"name": "StatefulPartitionedCall/StatefulPartitionedCall/StatefulPartitionedCall/pfor_1/range/delta", "shape": [], "dtype": "int32"}, {"name": "StatefulPartitionedCall/StatefulPartitionedCall/StatefulPartitionedCall/loop_body_1/SelectV2_1/e", "shape": [], "dtype": "int32"}, {"name": "StatefulPartitionedCall/StatefulPartitionedCall/StatefulPartitionedCall/loop_body_1/GatherV2_1/pfor/GatherV2/axis", "shape": [], "dtype": "int32"}, {"name": "StatefulPartitionedCall/StatefulPartitionedCall/StatefulPartitionedCall/loop_body_1/NonMaxSuppressionV5/max_output_size", "shape": [], "dtype": "int32"}, {"name": "StatefulPartitionedCall/StatefulPartitionedCall/StatefulPartitionedCall/loop_body_1/NonMaxSuppressionV5/iou_threshold", "shape": [], "dtype": "float32"}, {"name": "StatefulPartitionedCall/StatefulPartitionedCall/StatefulPartitionedCall/loop_body_1/NonMaxSuppressionV5/score_threshold", "shape": [], "dtype": "float32"}, {"name": "StatefulPartitionedCall/StatefulPartitionedCall/StatefulPartitionedCall/loop_body_1/NonMaxSuppressionV5/soft_nms_sigma", "shape": [], "dtype": "float32"}, {"name": "StatefulPartitionedCall/StatefulPartitionedCall/StatefulPartitionedCall/loop_body_1/NonMaxSuppressionV5/pfor/TensorListConcatV2_2/element_shape", "shape": [1], "dtype": "int32"}, {"name": "StatefulPartitionedCall/StatefulPartitionedCall/StatefulPartitionedCall/loop_body_1/NonMaxSuppressionV5/pfor/Const_3", "shape": [0], "dtype": "int32"}, {"name": "StatefulPartitionedCall/StatefulPartitionedCall/StatefulPartitionedCall/fpn_cells/cell_5/fnode6/op_after_combine11/conv/separable_conv2d/ReadVariableOp", "shape": [3, 3, 224, 1], "dtype": "float32"}, {"name": "StatefulPartitionedCall/StatefulPartitionedCall/StatefulPartitionedCall/fpn_cells/cell_5/fnode7/op_after_combine12/conv/separable_conv2d/ReadVariableOp", "shape": [3, 3, 224, 1], "dtype": "float32"}, {"name": "StatefulPartitionedCall/StatefulPartitionedCall/StatefulPartitionedCall/fpn_cells/cell_6/fnode0/op_after_combine5/conv/separable_conv2d/ReadVariableOp", "shape": [3, 3, 224, 1], "dtype": "float32"}, {"name": "StatefulPartitionedCall/StatefulPartitionedCall/StatefulPartitionedCall/fpn_cells/cell_6/fnode1/op_after_combine6/conv/separable_conv2d/ReadVariableOp", "shape": [3, 3, 224, 1], "dtype": "float32"}, {"name": "StatefulPartitionedCall/StatefulPartitionedCall/StatefulPartitionedCall/box_net/box-0/separable_conv2d/ReadVariableOp", "shape": [3, 3, 224, 1], "dtype": "float32"}, {"name": "StatefulPartitionedCall/StatefulPartitionedCall/StatefulPartitionedCall/box_net/box-0/separable_conv2d_1/ReadVariableOp", "shape": [3, 3, 224, 1], "dtype": "float32"}, {"name": "StatefulPartitionedCall/StatefulPartitionedCall/StatefulPartitionedCall/box_net/box-0/separable_conv2d_2/ReadVariableOp", "shape": [3, 3, 224, 1], "dtype": "float32"}, {"name": "StatefulPartitionedCall/StatefulPartitionedCall/StatefulPartitionedCall/box_net/box-0/separable_conv2d_3/ReadVariableOp", "shape": [3, 3, 224, 1], "dtype": "float32"}, {"name": "StatefulPartitionedCall/StatefulPartitionedCall/StatefulPartitionedCall/box_net/box-0/separable_conv2d_4/ReadVariableOp", "shape": [3, 3, 224, 1], "dtype": "float32"}, {"name": "StatefulPartitionedCall/StatefulPartitionedCall/StatefulPartitionedCall/fpn_cells/cell_6/fnode2/op_after_combine7/conv/separable_conv2d/ReadVariableOp", "shape": [3, 3, 224, 1], "dtype": "float32"}, {"name": "StatefulPartitionedCall/StatefulPartitionedCall/StatefulPartitionedCall/fpn_cells/cell_6/fnode3/op_after_combine8/conv/separable_conv2d/ReadVariableOp", "shape": [3, 3, 224, 1], "dtype": "float32"}, {"name": "StatefulPartitionedCall/StatefulPartitionedCall/StatefulPartitionedCall/fpn_cells/cell_6/fnode4/op_after_combine9/conv/separable_conv2d/ReadVariableOp", "shape": [3, 3, 224, 1], "dtype": "float32"}, {"name": "StatefulPartitionedCall/StatefulPartitionedCall/StatefulPartitionedCall/fpn_cells/cell_6/fnode5/op_after_combine10/conv/separable_conv2d/ReadVariableOp", "shape": [3, 3, 224, 1], "dtype": "float32"}, {"name": "StatefulPartitionedCall/StatefulPartitionedCall/StatefulPartitionedCall/box_net/box-1/separable_conv2d/ReadVariableOp", "shape": [3, 3, 224, 1], "dtype": "float32"}, {"name": "StatefulPartitionedCall/StatefulPartitionedCall/StatefulPartitionedCall/box_net/box-1/separable_conv2d_1/ReadVariableOp", "shape": [3, 3, 224, 1], "dtype": "float32"}, {"name": "StatefulPartitionedCall/StatefulPartitionedCall/StatefulPartitionedCall/box_net/box-1/separable_conv2d_2/ReadVariableOp", "shape": [3, 3, 224, 1], "dtype": "float32"}, {"name": "StatefulPartitionedCall/StatefulPartitionedCall/StatefulPartitionedCall/box_net/box-1/separable_conv2d_3/ReadVariableOp", "shape": [3, 3, 224, 1], "dtype": "float32"}, {"name": "StatefulPartitionedCall/StatefulPartitionedCall/StatefulPartitionedCall/box_net/box-1/separable_conv2d_4/ReadVariableOp", "shape": [3, 3, 224, 1], "dtype": "float32"}, {"name": "StatefulPartitionedCall/StatefulPartitionedCall/StatefulPartitionedCall/fpn_cells/cell_6/fnode6/op_after_combine11/conv/separable_conv2d/ReadVariableOp", "shape": [3, 3, 224, 1], "dtype": "float32"}, {"name": "StatefulPartitionedCall/StatefulPartitionedCall/StatefulPartitionedCall/fpn_cells/cell_6/fnode7/op_after_combine12/conv/separable_conv2d/ReadVariableOp", "shape": [3, 3, 224, 1], "dtype": "float32"}, {"name": "StatefulPartitionedCall/StatefulPartitionedCall/StatefulPartitionedCall/loop_body/PlaceholderWithDefault/input", "shape": [], "dtype": "int32"}, {"name": "StatefulPartitionedCall/StatefulPartitionedCall/StatefulPartitionedCall/loop_body/pad_to_bounding_box/sub/x", "shape": [], "dtype": "int32"}, {"name": "StatefulPartitionedCall/StatefulPartitionedCall/StatefulPartitionedCall/loop_body/pad_to_bounding_box/sub_1/x", "shape": [], "dtype": "int32"}, {"name": "StatefulPartitionedCall/StatefulPartitionedCall/StatefulPartitionedCall/loop_body/resize/ResizeBilinear/pfor/while/loop_counter", "shape": [], "dtype": "int32"}, {"name": "StatefulPartitionedCall/StatefulPartitionedCall/StatefulPartitionedCall/loop_body/resize/ResizeBilinear/pfor/while/maximum_iterations", "shape": [], "dtype": "int32"}, {"name": "StatefulPartitionedCall/StatefulPartitionedCall/StatefulPartitionedCall/loop_body/resize/ResizeBilinear/pfor/Const", "shape": [], "dtype": "int32"}, {"name": "StatefulPartitionedCall/StatefulPartitionedCall/StatefulPartitionedCall/loop_body/resize/ResizeBilinear/pfor/TensorArrayV2/element_shape", "shape": [], "dtype": "int32"}, {"name": "StatefulPartitionedCall/StatefulPartitionedCall/StatefulPartitionedCall/pfor/Reshape/shape", "shape": [1], "dtype": "int32"}, {"name": "StatefulPartitionedCall/StatefulPartitionedCall/StatefulPartitionedCall/loop_body/resize/ResizeBilinear/pfor/strided_slice/stack", "shape": [1], "dtype": "int32"}, {"name": "StatefulPartitionedCall/StatefulPartitionedCall/StatefulPartitionedCall/loop_body/resize/ResizeBilinear/pfor/strided_slice/stack_1", "shape": [1], "dtype": "int32"}, {"name": "StatefulPartitionedCall/StatefulPartitionedCall/StatefulPartitionedCall/loop_body/resize/ResizeBilinear/pfor/strided_slice/stack_2", "shape": [1], "dtype": "int32"}, {"name": "StatefulPartitionedCall/StatefulPartitionedCall/StatefulPartitionedCall/loop_body/resize/ExpandDims/pfor/add", "shape": [], "dtype": "int32"}, {"name": "StatefulPartitionedCall/StatefulPartitionedCall/StatefulPartitionedCall/box_net/box-2/separable_conv2d/ReadVariableOp", "shape": [3, 3, 224, 1], "dtype": "float32"}, {"name": "StatefulPartitionedCall/StatefulPartitionedCall/StatefulPartitionedCall/box_net/box-2/separable_conv2d_1/ReadVariableOp", "shape": [3, 3, 224, 1], "dtype": "float32"}, {"name": "StatefulPartitionedCall/StatefulPartitionedCall/StatefulPartitionedCall/box_net/box-2/separable_conv2d_2/ReadVariableOp", "shape": [3, 3, 224, 1], "dtype": "float32"}, {"name": "StatefulPartitionedCall/StatefulPartitionedCall/StatefulPartitionedCall/box_net/box-2/separable_conv2d_3/ReadVariableOp", "shape": [3, 3, 224, 1], "dtype": "float32"}, {"name": "StatefulPartitionedCall/StatefulPartitionedCall/StatefulPartitionedCall/box_net/box-2/separable_conv2d_4/ReadVariableOp", "shape": [3, 3, 224, 1], "dtype": "float32"}, {"name": "StatefulPartitionedCall/StatefulPartitionedCall/StatefulPartitionedCall/loop_body/Cast_4", "shape": [], "dtype": "float32"}, {"name": "StatefulPartitionedCall/StatefulPartitionedCall/StatefulPartitionedCall/loop_body/Shape_4/pfor/strided_slice/stack", "shape": [1], "dtype": "int32"}, {"name": "StatefulPartitionedCall/StatefulPartitionedCall/StatefulPartitionedCall/loop_body/Shape_4/pfor/strided_slice/stack_1", "shape": [1], "dtype": "int32"}, {"name": "StatefulPartitionedCall/StatefulPartitionedCall/StatefulPartitionedCall/loop_body/Shape_4/pfor/strided_slice/stack_2", "shape": [1], "dtype": "int32"}, {"name": "StatefulPartitionedCall/StatefulPartitionedCall/StatefulPartitionedCall/loop_body/strided_slice_4/stack", "shape": [1], "dtype": "int32"}, {"name": "StatefulPartitionedCall/StatefulPartitionedCall/StatefulPartitionedCall/loop_body/strided_slice_4/stack_1", "shape": [1], "dtype": "int32"}, {"name": "StatefulPartitionedCall/StatefulPartitionedCall/StatefulPartitionedCall/loop_body/strided_slice_4/stack_2", "shape": [1], "dtype": "int32"}, {"name": "StatefulPartitionedCall/StatefulPartitionedCall/StatefulPartitionedCall/loop_body/Cast_3", "shape": [], "dtype": "float32"}, {"name": "StatefulPartitionedCall/StatefulPartitionedCall/StatefulPartitionedCall/loop_body/truediv/pfor/strided_slice/stack", "shape": [1], "dtype": "int32"}, {"name": "StatefulPartitionedCall/StatefulPartitionedCall/StatefulPartitionedCall/loop_body/truediv/pfor/strided_slice/stack_1", "shape": [1], "dtype": "int32"}, {"name": "StatefulPartitionedCall/StatefulPartitionedCall/StatefulPartitionedCall/loop_body/truediv/pfor/strided_slice/stack_2", "shape": [1], "dtype": "int32"}, {"name": "StatefulPartitionedCall/StatefulPartitionedCall/StatefulPartitionedCall/loop_body/truediv/pfor/Tile", "shape": [0], "dtype": "int32"}, {"name": "StatefulPartitionedCall/StatefulPartitionedCall/StatefulPartitionedCall/loop_body/sub/pfor/strided_slice/stack", "shape": [1], "dtype": "int32"}, {"name": "StatefulPartitionedCall/StatefulPartitionedCall/StatefulPartitionedCall/loop_body/sub/pfor/strided_slice/stack_1", "shape": [1], "dtype": "int32"}, {"name": "StatefulPartitionedCall/StatefulPartitionedCall/StatefulPartitionedCall/loop_body/sub/pfor/strided_slice/stack_2", "shape": [1], "dtype": "int32"}, {"name": "StatefulPartitionedCall/StatefulPartitionedCall/StatefulPartitionedCall/loop_body/sub/pfor/Tile", "shape": [0], "dtype": "int32"}, {"name": "StatefulPartitionedCall/StatefulPartitionedCall/StatefulPartitionedCall/loop_body/strided_slice/stack", "shape": [1], "dtype": "int32"}, {"name": "StatefulPartitionedCall/StatefulPartitionedCall/StatefulPartitionedCall/loop_body/strided_slice/stack_1", "shape": [1], "dtype": "int32"}, {"name": "StatefulPartitionedCall/StatefulPartitionedCall/StatefulPartitionedCall/loop_body/strided_slice/stack_2", "shape": [1], "dtype": "int32"}, {"name": "StatefulPartitionedCall/StatefulPartitionedCall/StatefulPartitionedCall/loop_body/Greater/y", "shape": [], "dtype": "int32"}, {"name": "StatefulPartitionedCall/StatefulPartitionedCall/StatefulPartitionedCall/pfor/range/start", "shape": [], "dtype": "int32"}, {"name": "StatefulPartitionedCall/StatefulPartitionedCall/StatefulPartitionedCall/strided_slice/stack", "shape": [1], "dtype": "int32"}, {"name": "StatefulPartitionedCall/StatefulPartitionedCall/StatefulPartitionedCall/strided_slice/stack_1", "shape": [1], "dtype": "int32"}, {"name": "StatefulPartitionedCall/StatefulPartitionedCall/StatefulPartitionedCall/strided_slice/stack_2", "shape": [1], "dtype": "int32"}, {"name": "ConstantFolding/StatefulPartitionedCall/StatefulPartitionedCall/StatefulPartitionedCall/Max-reduction_indices", "shape": [1], "dtype": "int32"}, {"name": "StatefulPartitionedCall/StatefulPartitionedCall/StatefulPartitionedCall/box_net/box-3/separable_conv2d/ReadVariableOp", "shape": [3, 3, 224, 1], "dtype": "float32"}, {"name": "StatefulPartitionedCall/StatefulPartitionedCall/StatefulPartitionedCall/box_net/box-3/separable_conv2d_1/ReadVariableOp", "shape": [3, 3, 224, 1], "dtype": "float32"}, {"name": "StatefulPartitionedCall/StatefulPartitionedCall/StatefulPartitionedCall/box_net/box-3/separable_conv2d_2/ReadVariableOp", "shape": [3, 3, 224, 1], "dtype": "float32"}, {"name": "StatefulPartitionedCall/StatefulPartitionedCall/StatefulPartitionedCall/box_net/box-3/separable_conv2d_3/ReadVariableOp", "shape": [3, 3, 224, 1], "dtype": "float32"}, {"name": "StatefulPartitionedCall/StatefulPartitionedCall/StatefulPartitionedCall/box_net/box-3/separable_conv2d_4/ReadVariableOp", "shape": [3, 3, 224, 1], "dtype": "float32"}, {"name": "StatefulPartitionedCall/StatefulPartitionedCall/StatefulPartitionedCall/box_net/box-predict/BiasAdd/ReadVariableOp", "shape": [36], "dtype": "float32"}, {"name": "StatefulPartitionedCall/StatefulPartitionedCall/StatefulPartitionedCall/box_net/box-predict/BiasAdd_1/ReadVariableOp", "shape": [36], "dtype": "float32"}, {"name": "StatefulPartitionedCall/StatefulPartitionedCall/StatefulPartitionedCall/box_net/box-predict/BiasAdd_2/ReadVariableOp", "shape": [36], "dtype": "float32"}, {"name": "StatefulPartitionedCall/StatefulPartitionedCall/StatefulPartitionedCall/box_net/box-predict/BiasAdd_3/ReadVariableOp", "shape": [36], "dtype": "float32"}, {"name": "StatefulPartitionedCall/StatefulPartitionedCall/StatefulPartitionedCall/box_net/box-predict/BiasAdd_4/ReadVariableOp", "shape": [36], "dtype": "float32"}, {"name": "StatefulPartitionedCall/StatefulPartitionedCall/StatefulPartitionedCall/box_net/box-predict/separable_conv2d/ReadVariableOp", "shape": [3, 3, 224, 1], "dtype": "float32"}, {"name": "StatefulPartitionedCall/StatefulPartitionedCall/StatefulPartitionedCall/box_net/box-predict/separable_conv2d/ReadVariableOp_1", "shape": [1, 1, 224, 36], "dtype": "float32"}, {"name": "StatefulPartitionedCall/StatefulPartitionedCall/StatefulPartitionedCall/box_net/box-predict/separable_conv2d_1/ReadVariableOp", "shape": [3, 3, 224, 1], "dtype": "float32"}, {"name": "StatefulPartitionedCall/StatefulPartitionedCall/StatefulPartitionedCall/box_net/box-predict/separable_conv2d_1/ReadVariableOp_1", "shape": [1, 1, 224, 36], "dtype": "float32"}, {"name": "StatefulPartitionedCall/StatefulPartitionedCall/StatefulPartitionedCall/box_net/box-predict/separable_conv2d_2/ReadVariableOp", "shape": [3, 3, 224, 1], "dtype": "float32"}, {"name": "StatefulPartitionedCall/StatefulPartitionedCall/StatefulPartitionedCall/box_net/box-predict/separable_conv2d_2/ReadVariableOp_1", "shape": [1, 1, 224, 36], "dtype": "float32"}, {"name": "StatefulPartitionedCall/StatefulPartitionedCall/StatefulPartitionedCall/box_net/box-predict/separable_conv2d_3/ReadVariableOp", "shape": [3, 3, 224, 1], "dtype": "float32"}, {"name": "StatefulPartitionedCall/StatefulPartitionedCall/StatefulPartitionedCall/box_net/box-predict/separable_conv2d_3/ReadVariableOp_1", "shape": [1, 1, 224, 36], "dtype": "float32"}, {"name": "StatefulPartitionedCall/StatefulPartitionedCall/StatefulPartitionedCall/box_net/box-predict/separable_conv2d_4/ReadVariableOp", "shape": [3, 3, 224, 1], "dtype": "float32"}, {"name": "StatefulPartitionedCall/StatefulPartitionedCall/StatefulPartitionedCall/box_net/box-predict/separable_conv2d_4/ReadVariableOp_1", "shape": [1, 1, 224, 36], "dtype": "float32"}, {"name": "StatefulPartitionedCall/StatefulPartitionedCall/StatefulPartitionedCall/pfor/range/delta", "shape": [], "dtype": "int32"}, {"name": "StatefulPartitionedCall/StatefulPartitionedCall/StatefulPartitionedCall/loop_body/SelectV2/e", "shape": [], "dtype": "int32"}, {"name": "StatefulPartitionedCall/StatefulPartitionedCall/StatefulPartitionedCall/loop_body/GatherV2/pfor/GatherV2/axis", "shape": [], "dtype": "int32"}, {"name": "StatefulPartitionedCall/StatefulPartitionedCall/StatefulPartitionedCall/loop_body/sub/pfor/strided_slice_1/stack", "shape": [1], "dtype": "int32"}, {"name": "StatefulPartitionedCall/StatefulPartitionedCall/StatefulPartitionedCall/loop_body/sub/pfor/strided_slice_1/stack_1", "shape": [1], "dtype": "int32"}, {"name": "StatefulPartitionedCall/StatefulPartitionedCall/StatefulPartitionedCall/loop_body/sub/pfor/strided_slice_1/stack_2", "shape": [1], "dtype": "int32"}, {"name": "StatefulPartitionedCall/StatefulPartitionedCall/StatefulPartitionedCall/loop_body/sub/pfor/concat/axis", "shape": [], "dtype": "int32"}, {"name": "StatefulPartitionedCall/StatefulPartitionedCall/StatefulPartitionedCall/loop_body/Const_3", "shape": [1, 1, 3], "dtype": "float32"}, {"name": "StatefulPartitionedCall/StatefulPartitionedCall/StatefulPartitionedCall/loop_body/truediv/pfor/strided_slice_1/stack", "shape": [1], "dtype": "int32"}, {"name": "StatefulPartitionedCall/StatefulPartitionedCall/StatefulPartitionedCall/loop_body/truediv/pfor/strided_slice_1/stack_1", "shape": [1], "dtype": "int32"}, {"name": "StatefulPartitionedCall/StatefulPartitionedCall/StatefulPartitionedCall/loop_body/truediv/pfor/strided_slice_1/stack_2", "shape": [1], "dtype": "int32"}, {"name": "StatefulPartitionedCall/StatefulPartitionedCall/StatefulPartitionedCall/loop_body/truediv/pfor/concat/axis", "shape": [], "dtype": "int32"}, {"name": "ConstantFolding/StatefulPartitionedCall/StatefulPartitionedCall/StatefulPartitionedCall/loop_body/truediv/pfor/truediv_recip", "shape": [1, 1, 3], "dtype": "float32"}, {"name": "StatefulPartitionedCall/StatefulPartitionedCall/StatefulPartitionedCall/loop_body/Shape_3/pfor/strided_slice/stack", "shape": [1], "dtype": "int32"}, {"name": "StatefulPartitionedCall/StatefulPartitionedCall/StatefulPartitionedCall/loop_body/Shape_3/pfor/strided_slice/stack_1", "shape": [1], "dtype": "int32"}, {"name": "StatefulPartitionedCall/StatefulPartitionedCall/StatefulPartitionedCall/loop_body/Shape_3/pfor/strided_slice/stack_2", "shape": [1], "dtype": "int32"}, {"name": "StatefulPartitionedCall/StatefulPartitionedCall/StatefulPartitionedCall/loop_body/strided_slice_3/stack", "shape": [1], "dtype": "int32"}, {"name": "StatefulPartitionedCall/StatefulPartitionedCall/StatefulPartitionedCall/loop_body/strided_slice_3/stack_1", "shape": [1], "dtype": "int32"}, {"name": "StatefulPartitionedCall/StatefulPartitionedCall/StatefulPartitionedCall/loop_body/strided_slice_3/stack_2", "shape": [1], "dtype": "int32"}, {"name": "StatefulPartitionedCall/StatefulPartitionedCall/StatefulPartitionedCall/loop_body/resize/ResizeBilinear/pfor/TensorListConcatV2/element_shape", "shape": [5], "dtype": "int32"}, {"name": "StatefulPartitionedCall/StatefulPartitionedCall/StatefulPartitionedCall/loop_body/resize/ResizeBilinear/pfor/Const_1", "shape": [0], "dtype": "int32"}, {"name": "StatefulPartitionedCall/StatefulPartitionedCall/StatefulPartitionedCall/loop_body/strided_slice_5/pfor/concat", "shape": [4], "dtype": "int32"}, {"name": "StatefulPartitionedCall/StatefulPartitionedCall/StatefulPartitionedCall/loop_body/strided_slice_5/pfor/concat_1", "shape": [4], "dtype": "int32"}, {"name": "StatefulPartitionedCall/StatefulPartitionedCall/StatefulPartitionedCall/loop_body/strided_slice_5/pfor/concat_2", "shape": [4], "dtype": "int32"}, {"name": "StatefulPartitionedCall/StatefulPartitionedCall/StatefulPartitionedCall/loop_body/pad_to_bounding_box/ExpandDims/pfor/add", "shape": [], "dtype": "int32"}, {"name": "StatefulPartitionedCall/StatefulPartitionedCall/StatefulPartitionedCall/class_net/class-0/separable_conv2d/ReadVariableOp", "shape": [3, 3, 224, 1], "dtype": "float32"}, {"name": "StatefulPartitionedCall/StatefulPartitionedCall/StatefulPartitionedCall/class_net/class-0/separable_conv2d_1/ReadVariableOp", "shape": [3, 3, 224, 1], "dtype": "float32"}, {"name": "StatefulPartitionedCall/StatefulPartitionedCall/StatefulPartitionedCall/class_net/class-0/separable_conv2d_2/ReadVariableOp", "shape": [3, 3, 224, 1], "dtype": "float32"}, {"name": "StatefulPartitionedCall/StatefulPartitionedCall/StatefulPartitionedCall/class_net/class-0/separable_conv2d_3/ReadVariableOp", "shape": [3, 3, 224, 1], "dtype": "float32"}, {"name": "StatefulPartitionedCall/StatefulPartitionedCall/StatefulPartitionedCall/class_net/class-0/separable_conv2d_4/ReadVariableOp", "shape": [3, 3, 224, 1], "dtype": "float32"}, {"name": "StatefulPartitionedCall/StatefulPartitionedCall/StatefulPartitionedCall/loop_body/pad_to_bounding_box/Shape_1/pfor/strided_slice/stack", "shape": [1], "dtype": "int32"}, {"name": "StatefulPartitionedCall/StatefulPartitionedCall/StatefulPartitionedCall/loop_body/pad_to_bounding_box/Shape_1/pfor/strided_slice/stack_1", "shape": [1], "dtype": "int32"}, {"name": "StatefulPartitionedCall/StatefulPartitionedCall/StatefulPartitionedCall/loop_body/pad_to_bounding_box/Shape_1/pfor/strided_slice/stack_2", "shape": [1], "dtype": "int32"}, {"name": "StatefulPartitionedCall/StatefulPartitionedCall/StatefulPartitionedCall/class_net/class-1/separable_conv2d/ReadVariableOp", "shape": [3, 3, 224, 1], "dtype": "float32"}, {"name": "StatefulPartitionedCall/StatefulPartitionedCall/StatefulPartitionedCall/class_net/class-1/separable_conv2d_1/ReadVariableOp", "shape": [3, 3, 224, 1], "dtype": "float32"}, {"name": "StatefulPartitionedCall/StatefulPartitionedCall/StatefulPartitionedCall/class_net/class-1/separable_conv2d_2/ReadVariableOp", "shape": [3, 3, 224, 1], "dtype": "float32"}, {"name": "StatefulPartitionedCall/StatefulPartitionedCall/StatefulPartitionedCall/class_net/class-1/separable_conv2d_3/ReadVariableOp", "shape": [3, 3, 224, 1], "dtype": "float32"}, {"name": "StatefulPartitionedCall/StatefulPartitionedCall/StatefulPartitionedCall/class_net/class-1/separable_conv2d_4/ReadVariableOp", "shape": [3, 3, 224, 1], "dtype": "float32"}, {"name": "StatefulPartitionedCall/StatefulPartitionedCall/StatefulPartitionedCall/class_net/class-2/separable_conv2d/ReadVariableOp", "shape": [3, 3, 224, 1], "dtype": "float32"}, {"name": "StatefulPartitionedCall/StatefulPartitionedCall/StatefulPartitionedCall/class_net/class-2/separable_conv2d_1/ReadVariableOp", "shape": [3, 3, 224, 1], "dtype": "float32"}, {"name": "StatefulPartitionedCall/StatefulPartitionedCall/StatefulPartitionedCall/class_net/class-2/separable_conv2d_2/ReadVariableOp", "shape": [3, 3, 224, 1], "dtype": "float32"}, {"name": "StatefulPartitionedCall/StatefulPartitionedCall/StatefulPartitionedCall/class_net/class-2/separable_conv2d_3/ReadVariableOp", "shape": [3, 3, 224, 1], "dtype": "float32"}, {"name": "StatefulPartitionedCall/StatefulPartitionedCall/StatefulPartitionedCall/class_net/class-2/separable_conv2d_4/ReadVariableOp", "shape": [3, 3, 224, 1], "dtype": "float32"}, {"name": "StatefulPartitionedCall/StatefulPartitionedCall/StatefulPartitionedCall/class_net/class-3/separable_conv2d/ReadVariableOp", "shape": [3, 3, 224, 1], "dtype": "float32"}, {"name": "StatefulPartitionedCall/StatefulPartitionedCall/StatefulPartitionedCall/class_net/class-3/separable_conv2d_1/ReadVariableOp", "shape": [3, 3, 224, 1], "dtype": "float32"}, {"name": "StatefulPartitionedCall/StatefulPartitionedCall/StatefulPartitionedCall/class_net/class-3/separable_conv2d_2/ReadVariableOp", "shape": [3, 3, 224, 1], "dtype": "float32"}, {"name": "StatefulPartitionedCall/StatefulPartitionedCall/StatefulPartitionedCall/class_net/class-3/separable_conv2d_3/ReadVariableOp", "shape": [3, 3, 224, 1], "dtype": "float32"}, {"name": "StatefulPartitionedCall/StatefulPartitionedCall/StatefulPartitionedCall/class_net/class-3/separable_conv2d_4/ReadVariableOp", "shape": [3, 3, 224, 1], "dtype": "float32"}, {"name": "StatefulPartitionedCall/StatefulPartitionedCall/StatefulPartitionedCall/class_net/class-predict/BiasAdd/ReadVariableOp", "shape": [810], "dtype": "float32"}, {"name": "StatefulPartitionedCall/StatefulPartitionedCall/StatefulPartitionedCall/class_net/class-predict/BiasAdd_1/ReadVariableOp", "shape": [810], "dtype": "float32"}, {"name": "StatefulPartitionedCall/StatefulPartitionedCall/StatefulPartitionedCall/class_net/class-predict/BiasAdd_2/ReadVariableOp", "shape": [810], "dtype": "float32"}, {"name": "StatefulPartitionedCall/StatefulPartitionedCall/StatefulPartitionedCall/class_net/class-predict/BiasAdd_3/ReadVariableOp", "shape": [810], "dtype": "float32"}, {"name": "StatefulPartitionedCall/StatefulPartitionedCall/StatefulPartitionedCall/class_net/class-predict/BiasAdd_4/ReadVariableOp", "shape": [810], "dtype": "float32"}, {"name": "StatefulPartitionedCall/StatefulPartitionedCall/StatefulPartitionedCall/class_net/class-predict/separable_conv2d/ReadVariableOp", "shape": [3, 3, 224, 1], "dtype": "float32"}, {"name": "StatefulPartitionedCall/StatefulPartitionedCall/StatefulPartitionedCall/class_net/class-predict/separable_conv2d/ReadVariableOp_1", "shape": [1, 1, 224, 810], "dtype": "float32"}, {"name": "StatefulPartitionedCall/StatefulPartitionedCall/StatefulPartitionedCall/class_net/class-predict/separable_conv2d_1/ReadVariableOp", "shape": [3, 3, 224, 1], "dtype": "float32"}, {"name": "StatefulPartitionedCall/StatefulPartitionedCall/StatefulPartitionedCall/class_net/class-predict/separable_conv2d_1/ReadVariableOp_1", "shape": [1, 1, 224, 810], "dtype": "float32"}, {"name": "StatefulPartitionedCall/StatefulPartitionedCall/StatefulPartitionedCall/class_net/class-predict/separable_conv2d_2/ReadVariableOp", "shape": [3, 3, 224, 1], "dtype": "float32"}, {"name": "StatefulPartitionedCall/StatefulPartitionedCall/StatefulPartitionedCall/class_net/class-predict/separable_conv2d_2/ReadVariableOp_1", "shape": [1, 1, 224, 810], "dtype": "float32"}, {"name": "StatefulPartitionedCall/StatefulPartitionedCall/StatefulPartitionedCall/class_net/class-predict/separable_conv2d_3/ReadVariableOp", "shape": [3, 3, 224, 1], "dtype": "float32"}, {"name": "StatefulPartitionedCall/StatefulPartitionedCall/StatefulPartitionedCall/class_net/class-predict/separable_conv2d_3/ReadVariableOp_1", "shape": [1, 1, 224, 810], "dtype": "float32"}, {"name": "StatefulPartitionedCall/StatefulPartitionedCall/StatefulPartitionedCall/class_net/class-predict/separable_conv2d_4/ReadVariableOp", "shape": [3, 3, 224, 1], "dtype": "float32"}, {"name": "StatefulPartitionedCall/StatefulPartitionedCall/StatefulPartitionedCall/class_net/class-predict/separable_conv2d_4/ReadVariableOp_1", "shape": [1, 1, 224, 810], "dtype": "float32"}, {"name": "StatefulPartitionedCall/StatefulPartitionedCall/StatefulPartitionedCall/fpn_cells/cell_0/fnode0/op_after_combine5/conv/separable_conv2d/ReadVariableOp", "shape": [3, 3, 224, 1], "dtype": "float32"}, {"name": "StatefulPartitionedCall/StatefulPartitionedCall/StatefulPartitionedCall/fpn_cells/cell_0/fnode1/op_after_combine6/conv/separable_conv2d/ReadVariableOp", "shape": [3, 3, 224, 1], "dtype": "float32"}, {"name": "StatefulPartitionedCall/StatefulPartitionedCall/StatefulPartitionedCall/fpn_cells/cell_0/fnode2/op_after_combine7/conv/separable_conv2d/ReadVariableOp", "shape": [3, 3, 224, 1], "dtype": "float32"}, {"name": "StatefulPartitionedCall/StatefulPartitionedCall/StatefulPartitionedCall/fpn_cells/cell_0/fnode3/op_after_combine8/conv/separable_conv2d/ReadVariableOp", "shape": [3, 3, 224, 1], "dtype": "float32"}, {"name": "StatefulPartitionedCall/StatefulPartitionedCall/StatefulPartitionedCall/fpn_cells/cell_0/fnode4/op_after_combine9/conv/separable_conv2d/ReadVariableOp", "shape": [3, 3, 224, 1], "dtype": "float32"}, {"name": "StatefulPartitionedCall/StatefulPartitionedCall/StatefulPartitionedCall/fpn_cells/cell_0/fnode5/op_after_combine10/conv/separable_conv2d/ReadVariableOp", "shape": [3, 3, 224, 1], "dtype": "float32"}, {"name": "StatefulPartitionedCall/StatefulPartitionedCall/StatefulPartitionedCall/fpn_cells/cell_0/fnode6/op_after_combine11/conv/separable_conv2d/ReadVariableOp", "shape": [3, 3, 224, 1], "dtype": "float32"}, {"name": "StatefulPartitionedCall/StatefulPartitionedCall/StatefulPartitionedCall/fpn_cells/cell_0/fnode7/op_after_combine12/conv/separable_conv2d/ReadVariableOp", "shape": [3, 3, 224, 1], "dtype": "float32"}, {"name": "StatefulPartitionedCall/StatefulPartitionedCall/StatefulPartitionedCall/fpn_cells/cell_1/fnode0/op_after_combine5/conv/separable_conv2d/ReadVariableOp", "shape": [3, 3, 224, 1], "dtype": "float32"}, {"name": "StatefulPartitionedCall/StatefulPartitionedCall/StatefulPartitionedCall/fpn_cells/cell_1/fnode1/op_after_combine6/conv/separable_conv2d/ReadVariableOp", "shape": [3, 3, 224, 1], "dtype": "float32"}, {"name": "StatefulPartitionedCall/StatefulPartitionedCall/StatefulPartitionedCall/fpn_cells/cell_1/fnode2/op_after_combine7/conv/separable_conv2d/ReadVariableOp", "shape": [3, 3, 224, 1], "dtype": "float32"}, {"name": "StatefulPartitionedCall/StatefulPartitionedCall/StatefulPartitionedCall/fpn_cells/cell_1/fnode3/op_after_combine8/conv/separable_conv2d/ReadVariableOp", "shape": [3, 3, 224, 1], "dtype": "float32"}, {"name": "StatefulPartitionedCall/StatefulPartitionedCall/StatefulPartitionedCall/fpn_cells/cell_1/fnode4/op_after_combine9/conv/separable_conv2d/ReadVariableOp", "shape": [3, 3, 224, 1], "dtype": "float32"}, {"name": "StatefulPartitionedCall/StatefulPartitionedCall/StatefulPartitionedCall/fpn_cells/cell_1/fnode5/op_after_combine10/conv/separable_conv2d/ReadVariableOp", "shape": [3, 3, 224, 1], "dtype": "float32"}, {"name": "StatefulPartitionedCall/StatefulPartitionedCall/StatefulPartitionedCall/fpn_cells/cell_1/fnode6/op_after_combine11/conv/separable_conv2d/ReadVariableOp", "shape": [3, 3, 224, 1], "dtype": "float32"}, {"name": "StatefulPartitionedCall/StatefulPartitionedCall/StatefulPartitionedCall/fpn_cells/cell_1/fnode7/op_after_combine12/conv/separable_conv2d/ReadVariableOp", "shape": [3, 3, 224, 1], "dtype": "float32"}, {"name": "StatefulPartitionedCall/StatefulPartitionedCall/StatefulPartitionedCall/fpn_cells/cell_2/fnode0/op_after_combine5/conv/separable_conv2d/ReadVariableOp", "shape": [3, 3, 224, 1], "dtype": "float32"}, {"name": "StatefulPartitionedCall/StatefulPartitionedCall/StatefulPartitionedCall/fpn_cells/cell_2/fnode1/op_after_combine6/conv/separable_conv2d/ReadVariableOp", "shape": [3, 3, 224, 1], "dtype": "float32"}, {"name": "StatefulPartitionedCall/StatefulPartitionedCall/StatefulPartitionedCall/fpn_cells/cell_2/fnode2/op_after_combine7/conv/separable_conv2d/ReadVariableOp", "shape": [3, 3, 224, 1], "dtype": "float32"}, {"name": "StatefulPartitionedCall/StatefulPartitionedCall/StatefulPartitionedCall/fpn_cells/cell_2/fnode3/op_after_combine8/conv/separable_conv2d/ReadVariableOp", "shape": [3, 3, 224, 1], "dtype": "float32"}, {"name": "StatefulPartitionedCall/StatefulPartitionedCall/StatefulPartitionedCall/fpn_cells/cell_2/fnode4/op_after_combine9/conv/separable_conv2d/ReadVariableOp", "shape": [3, 3, 224, 1], "dtype": "float32"}, {"name": "StatefulPartitionedCall/StatefulPartitionedCall/StatefulPartitionedCall/fpn_cells/cell_2/fnode5/op_after_combine10/conv/separable_conv2d/ReadVariableOp", "shape": [3, 3, 224, 1], "dtype": "float32"}, {"name": "StatefulPartitionedCall/StatefulPartitionedCall/StatefulPartitionedCall/fpn_cells/cell_2/fnode6/op_after_combine11/conv/separable_conv2d/ReadVariableOp", "shape": [3, 3, 224, 1], "dtype": "float32"}, {"name": "StatefulPartitionedCall/StatefulPartitionedCall/StatefulPartitionedCall/fpn_cells/cell_2/fnode7/op_after_combine12/conv/separable_conv2d/ReadVariableOp", "shape": [3, 3, 224, 1], "dtype": "float32"}, {"name": "StatefulPartitionedCall/StatefulPartitionedCall/StatefulPartitionedCall/fpn_cells/cell_3/fnode0/op_after_combine5/conv/separable_conv2d/ReadVariableOp", "shape": [3, 3, 224, 1], "dtype": "float32"}, {"name": "StatefulPartitionedCall/StatefulPartitionedCall/StatefulPartitionedCall/fpn_cells/cell_3/fnode1/op_after_combine6/conv/separable_conv2d/ReadVariableOp", "shape": [3, 3, 224, 1], "dtype": "float32"}, {"name": "StatefulPartitionedCall/StatefulPartitionedCall/StatefulPartitionedCall/fpn_cells/cell_3/fnode2/op_after_combine7/conv/separable_conv2d/ReadVariableOp", "shape": [3, 3, 224, 1], "dtype": "float32"}, {"name": "StatefulPartitionedCall/StatefulPartitionedCall/StatefulPartitionedCall/fpn_cells/cell_3/fnode3/op_after_combine8/conv/separable_conv2d/ReadVariableOp", "shape": [3, 3, 224, 1], "dtype": "float32"}, {"name": "StatefulPartitionedCall/StatefulPartitionedCall/StatefulPartitionedCall/fpn_cells/cell_3/fnode4/op_after_combine9/conv/separable_conv2d/ReadVariableOp", "shape": [3, 3, 224, 1], "dtype": "float32"}, {"name": "StatefulPartitionedCall/StatefulPartitionedCall/StatefulPartitionedCall/fpn_cells/cell_3/fnode5/op_after_combine10/conv/separable_conv2d/ReadVariableOp", "shape": [3, 3, 224, 1], "dtype": "float32"}, {"name": "StatefulPartitionedCall/StatefulPartitionedCall/StatefulPartitionedCall/fpn_cells/cell_3/fnode6/op_after_combine11/conv/separable_conv2d/ReadVariableOp", "shape": [3, 3, 224, 1], "dtype": "float32"}, {"name": "StatefulPartitionedCall/StatefulPartitionedCall/StatefulPartitionedCall/fpn_cells/cell_3/fnode7/op_after_combine12/conv/separable_conv2d/ReadVariableOp", "shape": [3, 3, 224, 1], "dtype": "float32"}, {"name": "StatefulPartitionedCall/StatefulPartitionedCall/StatefulPartitionedCall/fpn_cells/cell_4/fnode0/op_after_combine5/conv/separable_conv2d/ReadVariableOp", "shape": [3, 3, 224, 1], "dtype": "float32"}, {"name": "StatefulPartitionedCall/StatefulPartitionedCall/StatefulPartitionedCall/fpn_cells/cell_4/fnode1/op_after_combine6/conv/separable_conv2d/ReadVariableOp", "shape": [3, 3, 224, 1], "dtype": "float32"}, {"name": "StatefulPartitionedCall/StatefulPartitionedCall/StatefulPartitionedCall/fpn_cells/cell_4/fnode2/op_after_combine7/conv/separable_conv2d/ReadVariableOp", "shape": [3, 3, 224, 1], "dtype": "float32"}, {"name": "StatefulPartitionedCall/StatefulPartitionedCall/StatefulPartitionedCall/fpn_cells/cell_4/fnode3/op_after_combine8/conv/separable_conv2d/ReadVariableOp", "shape": [3, 3, 224, 1], "dtype": "float32"}, {"name": "StatefulPartitionedCall/StatefulPartitionedCall/StatefulPartitionedCall/fpn_cells/cell_4/fnode4/op_after_combine9/conv/separable_conv2d/ReadVariableOp", "shape": [3, 3, 224, 1], "dtype": "float32"}, {"name": "StatefulPartitionedCall/StatefulPartitionedCall/StatefulPartitionedCall/fpn_cells/cell_4/fnode5/op_after_combine10/conv/separable_conv2d/ReadVariableOp", "shape": [3, 3, 224, 1], "dtype": "float32"}, {"name": "StatefulPartitionedCall/StatefulPartitionedCall/StatefulPartitionedCall/fpn_cells/cell_4/fnode6/op_after_combine11/conv/separable_conv2d/ReadVariableOp", "shape": [3, 3, 224, 1], "dtype": "float32"}, {"name": "StatefulPartitionedCall/StatefulPartitionedCall/StatefulPartitionedCall/fpn_cells/cell_4/fnode7/op_after_combine12/conv/separable_conv2d/ReadVariableOp", "shape": [3, 3, 224, 1], "dtype": "float32"}, {"name": "StatefulPartitionedCall/StatefulPartitionedCall/StatefulPartitionedCall/fpn_cells/cell_5/fnode0/op_after_combine5/conv/separable_conv2d/ReadVariableOp", "shape": [3, 3, 224, 1], "dtype": "float32"}, {"name": "StatefulPartitionedCall/StatefulPartitionedCall/StatefulPartitionedCall/fpn_cells/cell_5/fnode1/op_after_combine6/conv/separable_conv2d/ReadVariableOp", "shape": [3, 3, 224, 1], "dtype": "float32"}, {"name": "StatefulPartitionedCall/StatefulPartitionedCall/StatefulPartitionedCall/fpn_cells/cell_5/fnode2/op_after_combine7/conv/separable_conv2d/ReadVariableOp", "shape": [3, 3, 224, 1], "dtype": "float32"}, {"name": "StatefulPartitionedCall/StatefulPartitionedCall/StatefulPartitionedCall/fpn_cells/cell_5/fnode3/op_after_combine8/conv/separable_conv2d/ReadVariableOp", "shape": [3, 3, 224, 1], "dtype": "float32"}, {"name": "StatefulPartitionedCall/StatefulPartitionedCall/StatefulPartitionedCall/fpn_cells/cell_5/fnode4/op_after_combine9/conv/separable_conv2d/ReadVariableOp", "shape": [3, 3, 224, 1], "dtype": "float32"}, {"name": "StatefulPartitionedCall/StatefulPartitionedCall/StatefulPartitionedCall/fpn_cells/cell_5/fnode5/op_after_combine10/conv/separable_conv2d/ReadVariableOp", "shape": [3, 3, 224, 1], "dtype": "float32"}, {"name": "ConstantFolding/StatefulPartitionedCall/StatefulPartitionedCall/StatefulPartitionedCall/Max/input_const_axis", "shape": [], "dtype": "int32"}, {"name": "__inference_loop_body_resize_ResizeBilinear_pfor_while_body_69740_27129/loop_body/resize/ResizeBilinear/pfor/while/add_1/y", "shape": [], "dtype": "int32"}, {"name": "__inference_loop_body_resize_ResizeBilinear_pfor_while_body_69740_27129/loop_body/resize/ResizeBilinear/pfor/while/strided_slice/stack/1", "shape": [], "dtype": "int32"}, {"name": "__inference_loop_body_resize_ResizeBilinear_pfor_while_body_69740_27129/loop_body/resize/ResizeBilinear/pfor/while/add/y", "shape": [], "dtype": "int32"}, {"name": "__inference_loop_body_resize_ResizeBilinear_pfor_while_body_69740_27129/loop_body/resize/ResizeBilinear/pfor/while/strided_slice/stack_1/1", "shape": [], "dtype": "int32"}, {"name": "__inference_loop_body_resize_ResizeBilinear_pfor_while_body_69740_27129/loop_body/resize/ResizeBilinear/pfor/while/strided_slice/stack_2", "shape": [2], "dtype": "int32"}, {"name": "__inference_loop_body_resize_ResizeBilinear_pfor_while_body_69740_27129/loop_body/resize/ResizeBilinear/pfor/while/ExpandDims/dim", "shape": [], "dtype": "int32"}, {"name": "__inference_loop_body_resize_ResizeBilinear_pfor_while_body_69740_27129/loop_body/resize/ResizeBilinear/pfor/while/add_2/y", "shape": [], "dtype": "int32"}, {"name": "__inference_loop_body_1_NonMaxSuppressionV5_pfor_while_body_74760_31327/loop_body_1/NonMaxSuppressionV5/pfor/while/add_2/y", "shape": [], "dtype": "int32"}, {"name": "__inference_loop_body_1_NonMaxSuppressionV5_pfor_while_body_74760_31327/loop_body_1/NonMaxSuppressionV5/pfor/while/ExpandDims/dim", "shape": [], "dtype": "int32"}, {"name": "__inference_loop_body_1_NonMaxSuppressionV5_pfor_while_body_74760_31327/loop_body_1/NonMaxSuppressionV5/pfor/while/ExpandDims_1/dim", "shape": [], "dtype": "int32"}, {"name": "__inference_loop_body_1_NonMaxSuppressionV5_pfor_while_body_74760_31327/loop_body_1/NonMaxSuppressionV5/pfor/while/strided_slice/stack/1", "shape": [], "dtype": "int32"}, {"name": "__inference_loop_body_1_NonMaxSuppressionV5_pfor_while_body_74760_31327/loop_body_1/NonMaxSuppressionV5/pfor/while/add/y", "shape": [], "dtype": "int32"}, {"name": "__inference_loop_body_1_NonMaxSuppressionV5_pfor_while_body_74760_31327/loop_body_1/NonMaxSuppressionV5/pfor/while/strided_slice/stack_1/1", "shape": [], "dtype": "int32"}, {"name": "__inference_loop_body_1_NonMaxSuppressionV5_pfor_while_body_74760_31327/loop_body_1/NonMaxSuppressionV5/pfor/while/strided_slice/stack_2", "shape": [2], "dtype": "int32"}, {"name": "__inference_loop_body_1_NonMaxSuppressionV5_pfor_while_body_74760_31327/loop_body_1/NonMaxSuppressionV5/pfor/while/strided_slice_1/stack/1", "shape": [], "dtype": "int32"}, {"name": "__inference_loop_body_1_NonMaxSuppressionV5_pfor_while_body_74760_31327/loop_body_1/NonMaxSuppressionV5/pfor/while/add_1/y", "shape": [], "dtype": "int32"}, {"name": "__inference_loop_body_1_NonMaxSuppressionV5_pfor_while_body_74760_31327/loop_body_1/NonMaxSuppressionV5/pfor/while/strided_slice_1/stack_1/1", "shape": [], "dtype": "int32"}, {"name": "__inference_loop_body_1_NonMaxSuppressionV5_pfor_while_body_74760_31327/loop_body_1/NonMaxSuppressionV5/pfor/while/strided_slice_1/stack_2", "shape": [2], "dtype": "int32"}, {"name": "__inference_loop_body_1_NonMaxSuppressionV5_pfor_while_body_74760_31327/loop_body_1/NonMaxSuppressionV5/pfor/while/ExpandDims_2/dim", "shape": [], "dtype": "int32"}, {"name": "__inference_loop_body_1_NonMaxSuppressionV5_pfor_while_body_74760_31327/loop_body_1/NonMaxSuppressionV5/pfor/while/add_3/y", "shape": [], "dtype": "int32"}]}]}